models/classifier/AE-1651065589.pth (torch, 33345 bytes, 12 tensors)

conv1.weight f4 [5, 1, 5, 5]
00000000: 7c8f a8be 96c6 0dbe 604a 473c a757 89be
00000010: fe57 96bd 5f79 90bc 94dc 303e 249f 07be
00000020: 3a83 193e 0b3c 913d dd4f dc3d 8abd cc3c
00000030: dc3c 303e 77c0 ccbc bbfe 453e 4e84 cb3e
00000040: 33b3 ce3e 071c 4e3e 1515 a03e be0c 60bc
00000050: a902 7a3e 4f47 953e a7c4 743d 6514 09be
00000060: c449 06be 79e4 d5ba 3b7a f1bd 5b9c 203e
00000070: 6c78 653d 4a80 c53e 81ea 5ebd a1df 9f3d
00000080: cf5d b53d c7af da3e 643f b03e abda 983e
00000090: baee 663d dbbc 693e b69b d43e d894 a8bd
000000a0: 83f5 143d 414e 473e e44c 973d 5678 a13d
000000b0: ad02 c6bd 0c12 bc3d ed43 39be d177 4dbe
000000c0: 8d8a d1bd be65 473e f4a7 ccbd 9196 01bc
000000d0: 5c94 043e 6712 203e bc97 0b3d 5499 4fbe
000000e0: ef1e c5bd 32c9 463e 1983 863e fb6e 9b3d
000000f0: 0456 633e 6b33 7b3e 3f63 8a3e 0649 133d
00000100: 48d0 76be 23a9 173d d777 863e f2b4 4ebc
00000110: c930 be3d 4fb4 dd3c 2db2 bbbd 23f3 053e
00000120: d1fa 02bc 62b3 17be 471e 3b3e 4037 89bd
00000130: 027a 943e d403 833e 4ff0 4b3e b173 023d
00000140: 9bc2 c93d cf58 323e 4daf 003e bdf4 11bb
00000150: 5e3a d83c 71d4 ef3c 48fc 843e d71b be3d
00000160: 457f f23d ba32 423d bb8e 533d 1b80 08bc
00000170: 6e90 643e 0784 99bd 85bd 13be 64db 683e
00000180: b6c3 863e 4f32 3b3e 5feb 6b3e 575a 83bc
00000190: a6c0 5c3e 7e4e 31bd dcf3 cfbe dee8 96be
000001a0: 754e 28bd 3a97 f9bd 3818 48be 56a1 aabe
000001b0: 1f64 53be dd97 8e3e 23e3 4a3e 1011 2038
000001c0: 35e8 1b3d 7ad4 0d3d 39ee 913e b41a 853e
000001d0: 5ad5 e43e 9964 ea3e ce2c dc3d 4aa7 a73e
000001e0: 6acf 3c3c 044c be3e 2926 403e e72c 893d
000001f0: a1aa 3c3e
-0.3292197 -0.13845286 0.0121637285 -0.26824686 -0.07341002 -0.017636 0.17271644 -0.13244301
0.14991465 0.070915304 0.1075742 0.024992723 0.17210716 -0.024994118 0.19335453 0.39749378
0.40371093 0.20127879 0.31266084 -0.013674913 0.24415077 0.29155967 0.059757855 -0.13386686
-0.13114077 -0.00163187 -0.11790892 0.15684645 0.056023046 0.3857444 -0.05442286 0.07806326
0.08855783 0.42712232 0.34423363 0.2985433 0.05638001 0.22825949 0.41525048 -0.08231515
0.03636695 0.19463445 0.073877126 0.078842804 -0.09668479 0.0918313 -0.18092318 -0.20065238
-0.102315046 0.19472405 -0.09992972 -0.007909433 0.1294722 0.1563202 0.034080252 -0.20273334
-0.09625041 0.19412687 0.26271895 0.07589527 0.22200781 0.24531333 0.27028844 0.035958312
-0.2410289 0.037026536 0.26263306 -0.012616383 0.09286649 0.027063517 -0.09164844 0.1308103
-0.00799437 -0.14814523 0.18273269 -0.06699991 0.28999335 0.25588858 0.19915889 0.031848613
0.09851571 0.1741669 0.12566872 -0.002227112 0.02639502 0.029276105 0.25973725 0.09282654
0.11840681 0.047411658 0.05164979 -0.008331324 0.2232072 -0.07495885 -0.14427765 0.22739941
0.2632119 0.1828091 0.23039006 -0.016034288 0.21557865 -0.043287747 -0.40615737 -0.2947454
-0.041090447 -0.12187047 -0.19540489 -0.33326215 -0.20643662 0.27850237 0.19813208 3.8162863e-05
0.038063247 0.03462646 0.28502062 0.25996935 0.44694024 0.45779875 0.10750733 0.3274482
0.011524061 0.3716737 0.18764557 0.066980176 0.18424465

conv1.bias f4 [5]
00000000: 155f 7a3d 9995 8dbb 3900 913d 78d3 0f3b
00000010: 5bbf 02bc
0.061125834 -0.004320812 0.070801206 0.0021946114 -0.007980193

conv2.weight f4 [10, 5, 5, 5]
00000000: 2ee1 c83d 0dbc 033e 0207 3d3d f2c3 b9bd
00000010: c808 fbbc 81ca 063d 60c2 4bb9 0539 59bd
00000020: 5ce2 afbc 2960 1f3e 2783 763d 4abf 883d
00000030: d0c4 6ebd 0836 023c ca00 0d3e 1c4b 343d
00000040: 13a4 273e f9dd dd3d e5bc 40bd cc82 0c3d
00000050: 0937 c53d 8615 7e3d faa2 33bd a0d5 17be
00000060: a714 6e3d c4af 58bd 4887 303e b530 313d
00000070: 2ffd 6e3d 10bd bd3d 1c09 2c3d 4cfa 09bd
00000080: 94b1 99bd 23a4 15be 53c4 d03d 954b eabc
00000090: 42b4 2ebe 7632 3f3d 825d 913d c89f 603e
000000a0: 41da b3bc 106e aebd 3316 4c3e 2422 f33d
000000b0: aaf5 b23d ff6a 493d 5cce 143d fcb9 9c3d
000000c0: 42ef 4a3d 1869 103e 1420 253d 9306 d13d
000000d0: 9e37 663d 320f 82bd 8602 71bd 758e 5a3d
000000e0: df81 e23c bba8 06be 7cbb a33a 969a 293d
000000f0: eab7 a5bd 883b da3a fa15 33bd e914 7e3d
00000100: ebd9 3d3e ed69 dbbd 1ccb e4bd 1a0f 8dbc
00000110: c5e4 1e3e 36ec 093d 4197 923d 60a8 0eb8
00000120: fc3c 62bd 4177 c1bc c6af a9bb 98f4 58bd
00000130: 630b 02bd 905e 853d 5da1 fb3c d15b a53d
00000140: 3e30 203c 7a4d 80bd 5217 0dbe 92c1 b0bc
00000150: db5b f93c 7645 cebd 078c c9bd 4b3a 2cbe
00000160: 31d4 233d 260c 083e f62b 09bd 9fae b5bd
00000170: 808b 403d 0184 e03d dbae 103e 1c62 373d
00000180: b65c 22bd b463 f63c 1f79 31bd 1598 553d
00000190: 743c fd3d 26f1 853d b851 133d b05a 15be
000001a0: 98b1 33bd 8c38 9cbd fd3f f0bd 851c e63d
000001b0: 7807 f73d f24d a63d 4ffc e0bd 466e 8a3d
000001c0: 0867 973d d256 fa3d 39e6 733e 2cd2 99bc
000001d0: 1626 e43d 6733 d93d ec42 78bd b0fa 103e
000001e0: 2d62 6c3e 52c8 c23b ee02 cc3d 7a4c 04be
000001f0: 8ef9 5c3e 4c64 4d3d 1466 3a3d 0487 87be
00000200: 749d abbe 1b9f c7bd 6dba 163e 1b9d b7bc
00000210: f411 8abd cf0a 1f3d d2df 133e c4a7 b83d
00000220: 72e5 063e 5504 6d3c d75a 583e 5119 ae3d
00000230: 82e3 75bc 96db 023d 6f3b fabc 10c5 9cbc
00000240: 71df 863d 0642 423d 88e7 573d 4a13 923d
00000250: 193c 173d 3913 4f3e 273b 0ebc 856d 93bd
00000260: 2223 88be 07d8 8dbe 53c5 6bbc df49 6cbc
00000270: a3d7 21be bfe0 43be 4efb 3ebe 010d 84bd
00000280: 1a5b b43c 1b4c a5bc a4fc 203a a753 513e
00000290: 1bac 493e 2553 cd3d 3bd1 ea3d b63e 763e
000002a0: b2fe cc3d 4cef b5bd ea37 02bc 97e1 253e
000002b0: d1ac 1e3b c15e 4b3d e4df b23d e17a b3bd
000002c0: b758 7d3d 96d0 27be e83e 04be 0157 90bb
000002d0: 4c05 143e 61b9 213d 5db2 69be 19a8 71bd
000002e0: a449 f03d 38c5 d93d 8c28 d6bd 0300 873d
000002f0: eba8 563e a96c 333e 0c3e 8a3d 5a70 683d
00000300: e198 163e 82c6 1d3e d919 ee3b 2fa0 c0bc
00000310: 5c92 c23d 7524 cb3d 417c 4c3d 4a60 093e
00000320: d7c6 42bb 551c 61bd fa5e 4abe 0d19 35be
00000330: 64d0 58bc fdc4 3a3d 5d28 8cbd 94b2 cabd
00000340: e5d6 893d 40c6 f93d 772c 91bd 5ffb cebd
00000350: a28a 92bd 736b 40bc 7826 273e f286 72bb
00000360: b86f 9b3c 2e29 173d 4e1e 323e 8f4e 1c3e
00000370: 0fed 803d 1863 fabb 63e1 6a3d 819f 223d
00000380: 49ac bf3d 1cc9 98bd 58fd efbd f58d 9cbe
00000390: 681d 33be 7a12 4dbe 1409 61bd 0304 b0bc
000003a0: 9d1f 123d a4a2 9fba cc43 cb3d f12a d63d
000003b0: cfdb b23d ac07 f43d 6334 3c3c 6c2c 033d
000003c0: c873 d63d d863 6d3e e861 1e3e 072b 6c3d
000003d0: a307 503d 5430 3e3d 241d e13d 47c7 b23d
000003e0: f0f3 773e cf24 c53e 0407 c2bd 6d28 39bd
000003f0: e5ec 59bc 35bd 133d 28d9 983d 9074 263d
0.098085746 0.12864704 0.04614926 -0.09070577 -0.030643836 0.032907967 -0.00019431999 -0.053032894
-0.021470241 0.15564026 0.06018367 0.066771105 -0.058293164 0.007947452 0.13769832 0.044016942
0.16371183 0.108333535 -0.047055144 0.034304425 0.09629638 0.062032245 -0.0438566 -0.14827585
0.058125164 -0.052902 0.17239106 0.04325934 0.058346923 0.092645764 0.042000875 -0.033685967
-0.075045735 -0.14613394 0.10193696 -0.028600493 -0.1706095 0.046678983 0.07097913 0.21935952
-0.021954658 -0.085170865 0.19930343 0.11871746 0.08738263 0.049174305 0.036329612 0.07652661
0.04954458 0.1410259 0.040313795 0.10206332 0.056205384 -0.063505545 -0.058840297 0.053358514
0.027649818 -0.13150303 0.0012491788 0.04140719 -0.080917194 0.0016649822 -0.04372213 0.06203166
0.1854016 -0.10713563 -0.111715525 -0.017219115 0.15516956 0.033672534 0.07157756 -3.401225e-05
-0.05523394 -0.023616435 -0.0051784245 -0.052967638 -0.03174914 0.06512177 0.030716592 0.08074153
0.009777127 -0.062647775 -0.13778427 -0.021576677 0.030439308 -0.10071842 -0.09841161 -0.16819112
0.039997283 0.13285884 -0.03348919 -0.08871197 0.047008038 0.10962678 0.14129202 0.0447713
-0.039639197 0.030076839 -0.0433284 0.05214699 0.12365046 0.06540136 0.035966605 -0.14585376
-0.04387054 -0.07627973 -0.11730955 0.112359084 0.120619714 0.08120336 -0.10985624 0.06759314
0.073926985 0.12223591 0.23818292 -0.018776976 0.11140077 0.10605507 -0.060610697 0.1415813
0.23084326 0.00594429 0.09961496 -0.12919798 0.21579573 0.05014448 0.045507506 -0.26470196
-0.33518565 -0.09747144 0.14719553 -0.02241378 -0.067417055 0.038828667 0.1444085 0.09016374
0.13173464 0.014466365 0.21128403 0.085009225 -0.015007855 0.031947695 -0.030545918 -0.019136935
0.06585587 0.047426246 0.05271104 0.07132585 0.036922548 0.20222177 -0.008681095 -0.071986236
-0.26589304 -0.27703878 -0.0143903075 -0.014421909 -0.15804915 -0.19128703 -0.18650553 -0.06447793
0.022016097 -0.020177891 0.0006141162 0.20442067 0.1969456 0.10025624 0.11465689 0.2404736
0.10009517 -0.08883533 -0.007947901 0.16199337 0.0024211893 0.04965091 0.0873411 -0.08763672
0.061852183 -0.16388163 -0.12914622 -0.004404903 0.14455146 0.03948343 -0.22821946 -0.0589982
0.11732796 0.106333196 -0.104569525 0.06591799 0.20962875 0.1752192 0.06750116 0.05674777
0.14706756 0.15407756 0.007266265 -0.023513881 0.09500572 0.09919063 0.049923185 0.13415638
-0.0029720569 -0.05495866 -0.19762793 -0.17685337 -0.013233278 0.04559802 -0.06843636 -0.09897342
0.06730441 0.12196016 -0.07088559 -0.10106539 -0.07155348 -0.011744368 0.16323268 -0.0037006703
0.01897417 0.036904506 0.17394373 0.15264343 0.06295215 -0.0076412074 0.05734385 0.039702896
0.09359033 -0.074602336 -0.11718243 -0.30577055 -0.17491686 -0.2002658 -0.0549403 -0.021486288
0.03567468 -0.0012179208 0.099250406 0.10457409 0.087333314 0.11915526 0.011487099 0.032024786
0.10471302 0.23182619 0.15467036 0.05765822 0.050788533 0.046432808 0.10991886 0.087294154
0.24214149 0.38504645 -0.094739944 -0.04520457 -0.013301109 0.036069114 0.07463294 0.040638506

conv2.bias f4 [10]
00000000: 8253 53bd 4f69 843d 18b6 43bd fbf9 be3b
00000010: de59 983c 73ea 97bc 2ac8 55bd 912c 8e3d
00000020: 80d3 443d c296 82bd
-0.05159331 0.064653985 -0.04778108 0.00582814 0.01859754 -0.018544411 -0.052192844 0.06942094
0.048053265 -0.06376411

conv3.weight f4 [20, 10, 3, 3]
00000000: a2d6 0e3d bb3e e5bd d41c 87bd 53c8 2bbd
00000010: b599 8dbd b03b 273d d94b 823d d3e9 28be
00000020: 67a3 1e3e c16e d03d 3549 0dbd 5392 39be
00000030: 68e0 fb3a caca 68bd f8a6 573d 7d2a 883d
00000040: f65d 5dbd 1a2f 023e 0eda 2e3e 6656 453d
00000050: 1203 97bc dc46 6e3d e291 bbbb 30e8 06be
00000060: 1b2d 1f3e d70a d43d 4033 1ebd 8f3e 92bd
00000070: 770c 25bd 549d 343d dda7 c13d ff85 14be
00000080: cdec 84bd 2a6d e4bc 272e b63b 1204 353e
00000090: 4733 d9bb 9c89 573a 3328 2dbd 52e1 193d
000000a0: 2e4c a03c 14f3 17be d54c f23c e8dd d43d
000000b0: ba40 a0bd 27b0 273e 7e80 febd 1216 13bd
000000c0: 826a ea3d e6b8 e4bd db70 b0bd 37e2 1b3e
000000d0: 108b bdbc 6f9a 8bbd 74c1 8e3d 7311 f5bd
000000e0: 9ea8 45be 8b8d 1f3e 8313 c1bd 3883 9dbd
000000f0: 579f 613d d9c8 bc3c c3bd e0bb ebc7 4a3d
00000100: 4f27 133e 3c56 4abd 636b ed3d fa3d 1ebc
00000110: d6e0 f1bc 95c7 863d 28b7 473e 4306 d3bd
00000120: 83e6 86bd c6a3 b5bd 7451 e73a fa7c 423d
00000130: 9167 21bd 2f94 96bd 05ad 25bd d107 68be
00000140: cd80 183c b692 833c 778e 223d b4f7 173e
00000150: ddb4 eb3c 4fcd dcbd f55d e53d 9507 3f3d
00000160: 352f d5bd 6ea4 d23c c56a c03c 32b2 7ebd
00000170: 38e1 d8bc f201 d53c 9916 20bd cde3 e8bb
00000180: 20bf 94bd 3f40 c13d 74a9 c9bc 6a31 653d
00000190: 0168 0d3e da7a 65bd 85b5 fabd 01e1 9e3d
000001a0: 5528 c639 d65a b1bd d933 eabb de79 2fbe
000001b0: d99a 293d 8fa2 cf3d 27a7 413c 486e 38be
000001c0: b472 ce3d f089 053e e5e0 ee3c efa2 27bd
000001d0: 8e1f 823d 7bb3 9cbd 4730 85bd 01a2 39bb
000001e0: 5df4 82bc 71d3 a93d 74ca 11bd 1419 f9bd
000001f0: 988a 8dbd 02b4 ffbc 7391 0fbe 7f69 753d
00000200: d0a6 b23d 0e59 2bbe 8c65 c2bd 8f7c 713d
00000210: 44bc 3a3c 274a 8d3d bfac e1bd dc2c fabc
00000220: 6b07 1e3d d1f9 5bbd 8ccf 01be bb30 bebd
00000230: 0d84 843d 18a9 a5bc 1ed7 d0bd 8d7f 773d
00000240: b9fa 15be d494 b43d 10e4 a6bc a481 21bd
00000250: 1b44 c43d 1975 dc3c cfe3 05be e7bb 553d
00000260: 2c1a 8dbc fb50 77bd bef9 bfbd 6680 8cbd
00000270: f02f 65be 6111 84bd 2018 063d cbaf 1dbe
00000280: 1285 fbbd 1d07 62bc 9f88 3f3d 1785 8e3d
00000290: 431f f9bd 4497 083e 0e01 333e 307f 64bd
000002a0: 1b97 1a3d 04c6 f43d dc16 173d 23a7 ce3d
000002b0: 5ddf af3c 5ab4 3cbe ea23 7c3b 2ca8 0a3e
000002c0: ef7f 83bc ef66 01be f178 c83b cef0 b6bd
000002d0: f71e 173e 3b64 f73c 09c9 203e 913e 663c
000002e0: bf69 ef3b b11a cd3b 865e 8cbd f5cb 4ebe
000002f0: d28c 2bbe a5a2 793d 051a 363d 3aa7 ba3d
00000300: e141 7e3c 50fa 3ebd 7c8f 3fbd b3c3 11bd
00000310: fcd7 32be e55b d8bd 9cdf d83c 0972 a23c
00000320: 3fe3 3d3e 7247 3d3e 2854 0b3e 0e13 c0bd
00000330: 633b 753d 833a 9fbd 8aff 6dbe dbde e63d
00000340: 4f82 b7bd 220b f63d c4fc dbbc a713 d43c
00000350: 9817 91bc fba1 00be aaea 4abe 2a7d 2aba
00000360: dcd4 06bd 821b 153e 061c bf3d d7be 09bd
00000370: d00f 093d 8543 fe3c acf3 62bc 6270 1bbe
00000380: a484 60bd 2dd1 05bd 29c3 5cbd e3c4 bebd
00000390: dc67 393d de91 cd3d 003e c2bd 998a f9bd
000003a0: e4dd 903d 8bcd 32be 8d17 1b3e 6de2 713d
000003b0: ef08 48bd 7732 3ebb 0da3 e23c c4fd 783d
000003c0: 5463 11be 5861 6dbd 859e 03be 65ed b23c
000003d0: fff8 9c3d fb25 893d f24f e5bb dd8a 0f3e
000003e0: 1c89 2b3d 975f 543d 41a7 82bc 12cd d3bd
000003f0: 3a14 17be 0c34 87be d5f3 523c 604a 6fbd
0.03487266 -0.111936055 -0.065972954 -0.04193909 -0.06914083 0.040828407 0.06362123 -0.16495447
0.1549202 0.10177375 -0.034493644 -0.18122225 0.0019216659 -0.05683402 0.05264947 0.06648729
-0.054044686 0.1271328 0.17075369 0.0481781 -0.018434081 0.058173046 -0.0057241777 -0.1317451
0.1554455 0.1035363 -0.038623095 -0.07140838 -0.04029509 0.044095352 0.094558455 -0.1450424
-0.06490479 -0.027884085 0.005559701 0.17677334 -0.006628427 0.00082221045 -0.042274665 0.037568398
0.019567575 -0.1483882 0.029577652 0.10393888 -0.078248456 0.1637579 -0.12426852 -0.03590972
0.11446096 -0.11168079 -0.086152755 0.15223013 -0.0231376 -0.06816565 0.06970492 -0.11966219
-0.19302604 0.15581338 -0.0942755 -0.076910436 0.0550836 0.02304499 -0.006858559 0.049507063
0.14370464 -0.049398646 0.11592748 -0.009658331 -0.029526155 0.06581036 0.19503462 -0.10303929
-0.06586935 -0.08869128 0.0017648176 0.04748247 -0.03940541 -0.073524825 -0.040448207 -0.22659232
0.009308052 0.016061168 0.039686646 0.14840585 0.028772766 -0.10781347 0.111995615 0.04663809
-0.10409395 0.025713172 0.023488412 -0.06218166 -0.02647458 0.026001904 -0.03908405 -0.007107234
-0.07263017 0.09436082 -0.024616934 0.055955328 0.13809206 -0.056025364 -0.12241653 0.0775776
0.00037795553 -0.08659904 -0.007147294 -0.17136332 0.04140744 0.101384275 0.011819637 -0.18010819
0.10080472 0.130409 0.029159972 -0.04092687 0.06353675 -0.07651421 -0.06503349 -0.0028325322
-0.015985662 0.082922824 -0.035593465 -0.121629864 -0.069112 -0.031213764 -0.14020328 0.059915062
0.08723223 -0.1673319 -0.09492025 0.05895668 0.011397425 0.06898909 -0.11019277 -0.030538969
0.038581293 -0.05370504 -0.12676829 -0.09286638 0.06470499 -0.020222232 -0.1019728 0.060424376
-0.14646424 0.08817449 -0.02037242 -0.039430276 0.095833026 0.026911305 -0.13075183 0.05218115
-0.017224394 -0.060379963 -0.093738064 -0.068604276 -0.22381568 -0.06448627 0.03273785 -0.15399091
-0.122812405 -0.013795641 0.04676115 0.069589786 -0.12164166 0.13338953 0.17480871 -0.055785358
0.03774176 0.11951831 0.036887035 0.100904725 0.021468813 -0.18428174 0.0038473555 0.13540715
-0.016052214 -0.12636922 0.006117933 -0.089326486 0.14757906 0.03019916 0.15701689 0.014053003
0.007306307 0.0062592854 -0.068539664 -0.20194991 -0.16752937 0.060946126 0.044458408 0.09113927
0.015518636 -0.046625435 -0.046767697 -0.035587024 -0.17465204 -0.105644025 0.026473813 0.019829767
0.18543719 0.18484285 0.13606322 -0.093786344 0.05987109 -0.07774832 -0.23242012 0.11272975
-0.08960401 0.12013842 -0.026853926 0.025888277 -0.017711446 -0.1256179 -0.1981608 -0.0006503636
-0.032917842 0.14561275 0.09331517 -0.033629265 0.033462346 0.031038055 -0.013852041 -0.1517959
-0.054813996 -0.03267019 -0.053897057 -0.09314897 0.045265064 0.100375876 -0.09484482 -0.121846385
0.07073572 -0.17461221 0.15145703 0.059053827 -0.048836645 -0.0029021779 0.02766564 0.060788885
-0.14198047 -0.057954162 -0.12853439 0.021841714 0.0766468 0.06696697 -0.0069980556 0.14017816
0.041878805 0.051848974 -0.015948894 -0.103418484 -0.1475381 -0.26406896 0.012875517 -0.05842054

conv3.bias f4 [20]
00000000: 259a babc 729a 9ebb 2c54 8dbd 366a 22bd
00000010: 65db 93bd 1922 a03d c87f 073e 9f8d 9c3d
00000020: 1cd2 7e3d 4018 833d 5135 babd fbd5 34bd
00000030: 1d22 41bd e305 e3bd 0078 033d 2f65 a53c
00000040: b257 c3bc 4377 06bd fbfb a63d 0711 0dbd
-0.02277858 -0.0048401887 -0.0690082 -0.039652072 -0.072195806 0.078190036 0.13232338 0.076441996
0.062212095 0.0640111 -0.090922005 -0.04414938 -0.047151674 -0.11085107 0.032096863 0.02018985
-0.023845527 -0.03282858 0.0815353 -0.034440067

fc1.weight f4 [40, 80]
00000000: 1148 5dbc 5276 8fbd 11bb acbb 3aca 883d
00000010: 3436 303b 3c40 8f3b 7359 d83c 2433 843d
00000020: eaaf 473d 4893 8dbd 7da5 e63d c813 a03d
00000030: 8126 803c 0aaa aabd f4bf 8b3d a1ad c0bd
00000040: 9489 4e3d 974a f6bc 13bd b7bd ac9a 193c
00000050: 0749 c5bd 5e3a b13d 2086 57bd ab03 123c
00000060: 05aa a93d 5139 b53d 5a39 0c3d 8331 a33d
00000070: bf46 a53c 8b89 453d 4145 5d3d 1e61 d63d
00000080: 9301 cabd 5d18 5d3d e813 6d3d bbb1 cc3d
00000090: bbd0 c7bd 3988 5c3d 0253 24bd f772 b4bd
000000a0: 0e3e bf3c 05cf f3bc 9fcc 973d 5f5b 8c3d
000000b0: 2fda edbc b67e e5bd b14c babd 48db ca3d
000000c0: 8598 c6bd 067f abbb 2582 bd3d e435 943d
000000d0: 25b2 303d 04da 333d ef3a f13c 0eed 003c
000000e0: dc66 96bd 1053 2dbd d4ac 38bb b337 44bd
000000f0: 3806 213d 28ca e13c 996a 58bd 1c67 8ebd
00000100: d367 dbbd fe10 55bd 6ad1 c4bd 2c6e f6bb
00000110: b0f6 803b 7078 6abd 5c57 4abc 6d60 8b3d
00000120: 2a2f 1e3d 577b ebbb f1a5 c33b c365 b13d
00000130: c8f7 143c eb8f a1bd f615 afbd d9bb 7fbd
00000140: aa1b 653e d65e 93bd 2e48 a53e 59b8 723d
00000150: 992b 8cbd d7c8 8bbd 2c8f ebbd 142c a03d
00000160: 9981 883e b8cb d9bd 1b3a 923b 4fd7 26bc
00000170: b3c5 c7bd b04a 8bbd 1ae6 843d 0b34 83be
00000180: e388 be3c 6e21 39bc 2cf4 cb3a 73d6 04be
00000190: eb4c 703d 0d49 e5bd f07f ddbd 8dec acbd
000001a0: 12f1 153e 15ea 1cbd 6294 db3d 1a8c 033b
000001b0: cea3 fcbd 544d 82bd e4ec a2bd fbe6 5dbc
000001c0: fa8f fa3d 6471 6dbd 5172 c33b 874a a8bd
000001d0: 94a3 703c ecaa d83d 38b8 8fbc 5374 5a3c
000001e0: e565 5bbe 9dfb 823d 7791 ccbd 0d05 e1bd
000001f0: e935 063d 30e5 e03c 6b73 ebbd 3730 cfbd
00000200: 1290 a9bd 869e 73bd 7c8d 923d 014e 40bd
00000210: 9621 9c3d d690 ddbd eb75 873b ae8a 7f3d
00000220: ce60 b9bd 1e92 07be 59fd aebc 39de 25bc
00000230: 3b3f 9bbd f708 983d f76a 98bd 53bb a1bd
00000240: 334e 653d a4a6 973e 62b0 ecbc 974a 0b3d
00000250: 3d47 be3d 2fc7 ecbc 689e b13d 632b b23d
00000260: 5ff5 d6bd fa8f 79bd 9145 dfbb edf3 38be
00000270: 4773 18be b9f6 aa3d 70d0 1e3c 05b8 8b3d
00000280: 76a0 853d 4596 4abc 3f0e ae3b 2d10 e6bc
00000290: b509 16be a711 66bc dbf6 76bd 98ce d3bb
000002a0: cf40 343d a02d 18be 369f 80bd 58fb 2c3d
000002b0: 6b7d 61be 223b 00be 7a27 86b9 2ab9 783b
000002c0: 69de 35be 1ae4 b03c 2457 b4bd 149f 8d3d
000002d0: 9335 b13d 0548 1c3d 1684 a03c 6cc3 003e
000002e0: 393e 73bd dca6 30bd ea3a 0bbd 6dea 833e
000002f0: d649 ddbb ab95 58bd 549e ad3d 6409 053e
00000300: ceab 453e bc93 1dbe 633f 0dbe 270b 053e
00000310: 0d0b 793d 4bed 07bd aab3 f53d 4382 ac3b
00000320: 12b2 78bd 825c 0e3e 2f26 153e 2228 e73c
00000330: f5c3 adbc 1660 f03d 88cf 533d f68e d43d
00000340: 26f3 b9bd fbfa 4abd b803 933c 8c13 a1bd
00000350: 6d2e c5bb bc5c 10be 9a11 ac3b 7b1b b33d
00000360: fd1a d1bd 38fd 483d c7d3 d33d 1a74 9abd
00000370: 8e36 1e3d b3ca 1dbd 5297 7dbd a39d b63d
00000380: 7bef acbd 8aed 3ebd 8cff 703d cd0c f5bd
00000390: 2e59 03be 70a0 18bd b089 18be ce3a 053d
000003a0: f922 41bc de98 483c a1d1 08bd 1a0a 31bd
000003b0: 4922 a13d e36e bf3c 32af e23d 4ca3 d03c
000003c0: c12d 893d 708f ae3d 2fee 77bc 6469 ce3d
000003d0: 4f05 e5bc f210 95bd 134d b7bd 692d 16bd
000003e0: ddcd 5cbd 63db bcbd 5522 bf3d a9f7 b53d
000003f0: fc35 283b 6d3a fbbc 0675 50bd f4a8 8a3d
-0.0135059515 -0.0700499 -0.0052713235 0.06679197 0.0026887776 0.004371671 0.02640984 0.06455067
0.04875175 -0.06912857 0.11262033 0.07816273 0.01564336 -0.083332136 0.068237215 -0.09408117
0.050424173 -0.030064864 -0.0897161 0.009375256 -0.096330695 0.08653711 -0.052618146 0.008912007
0.08284382 0.08848823 0.034234382 0.07968428 0.020175336 0.048226874 0.054021124 0.104677424
-0.098635815 0.053978313 0.057880312 0.09994837 -0.09756609 0.05384085 -0.040118225 -0.0881099
0.02334502 -0.0297618 0.07412075 0.06853365 -0.029034702 -0.11205809 -0.09096659 0.09905106
-0.096970595 -0.0052336482 0.09253339 0.07236841 0.043138642 0.043909088 0.029447047 0.007869018
-0.073438376 -0.042315543 -0.0028179185 -0.04790468 0.03931257 0.027562216 -0.052836034 -0.0695326
-0.10713162 -0.05201816 -0.09610255 -0.0075204577 0.0039356574 -0.057243764 -0.01234993 0.06805501
0.038619198 -0.007186334 0.0059707095 0.08661988 0.009092279 -0.07888778 -0.085491106 -0.062435005
0.22373834 -0.07195823 0.3228163 0.05925784 -0.06844253 -0.068254165 -0.11501917 0.07820907
0.26661375 -0.106345594 0.004462493 -0.0101831695 -0.09754505 -0.06801355 0.06489201 -0.25625643
0.023258632 -0.011299474 0.001556044 -0.12972431 0.058667105 -0.11195574 -0.10815418 -0.08443556
0.14642742 -0.038309176 0.10721661 0.002007252 -0.12335931 -0.063624054 -0.079553396 -0.01354384
0.122344926 -0.057969466 0.0059645553 -0.0821734 0.014687438 0.10579476 -0.017543897 0.013333398
-0.21425588 0.06395648 -0.09988683 -0.109872915 0.032766256 0.027453035 -0.114966236 -0.10116618
-0.08279432 -0.05947735 0.07155892 -0.04694939 0.076235935 -0.10818641 0.00413393 0.062388115
-0.09051667 -0.13239333 -0.02136104 -0.010123783 -0.0758042 0.07423585 -0.07442277 -0.078970574
0.05598278 0.29619324 -0.0288927 0.03400668 0.092909314 -0.028903572 0.08672792 0.086996816
-0.104960196 -0.060928322 -0.006813713 -0.180618 -0.14887725 0.0834784 0.00969325 0.06822208
0.06524746 -0.012364929 0.005311757 -0.028083885 -0.1465214 -0.014042295 -0.060294013 -0.006463837
0.04400712 -0.14861155 -0.06280367 0.042231888 -0.220205 -0.12522557 -0.00025587884 0.0037952163
-0.17760624 0.021593142 -0.08805683 0.06915107 0.086527966 0.03815462 0.019594233 0.12574548
-0.059385512 -0.04312788 -0.03399173 0.2576479 -0.0067531867 -0.05287711 0.08477464 0.12991863
0.1930382 -0.15388387 -0.13793711 0.12992536 0.060801554 -0.033185285 0.11997159 0.005264552
-0.060716696 0.13902476 0.14565347 0.028217379 -0.021211604 0.11737077 0.05171159 0.1037883
-0.0907958 -0.04955576 0.01794611 -0.078650564 -0.0060174973 -0.14097875 0.0052511217 0.08745476
-0.10210226 0.049069613 0.10343128 -0.07541676 0.038626246 -0.038523387 -0.06191189 0.089167856
-0.08444115 -0.046613254 0.05883746 -0.11965332 -0.12826988 -0.03726238 -0.14896274 0.032526784
-0.011788123 0.012243478 -0.033403043 -0.043222524 0.078678675 0.023368305 0.11068572 0.025468491
0.0669818 0.08523452 -0.015132471 0.100786954 -0.027956633 -0.07278623 -0.089502476 -0.0366644
-0.053907264 -0.09221532 0.0933272 0.08885128 0.0025666943 -0.030667508 -0.050892852 0.067705065

fc1.bias f4 [40]
00000000: 3d2e 6cbd cbf9 a23c 8c44 2abd 6dda ba3d
00000010: 1f0b 8f3c 2847 e33d f418 a43b 7fbe 513d
00000020: fe0e 7f3d 49e6 703d c078 89bd e988 d53d
00000030: 2380 9dbd 244b 8fbd 0e4e 7cbd 89ac 233d
00000040: 3645 49bc 0c6f d23d e25f 08bc f841 473d
00000050: 7565 933c 1852 c23d f06b 233d 3ef9 453d
00000060: e41f 8fbc baee 42bd c3b7 0c3d bda3 80bc
00000070: 09eb ebbc f2f6 033e eec7 5e3d c54c d53d
00000080: 03df 7e3b fc2c f3bd 53c2 debd e5b6 6fbd
00000090: b6b0 2e3d 60e5 0b3e 9a2f d73d f895 09bc
-0.057661284 0.019894501 -0.041569278 0.09123693 0.017461358 0.11097556 0.0050078575 0.05120706
0.062270157 0.058813367 -0.06712484 0.10426504 -0.07690456 -0.06996754 -0.061597876 0.039959464
-0.012284568 0.10275087 -0.0083236415 0.048646897 0.017992714 0.094883144 0.03989786 0.0483334
-0.017471261 -0.04759095 0.034354936 -0.015703076 -0.028798597 0.12887171 0.054389887 0.10415033
0.003889025 -0.118738145 -0.10876908 -0.05852403 0.042648993 0.13661718 0.10507126 -0.008397572

fc2.weight f4 [20, 40]
00000000: 6295 61bd 48e2 cf3d 9ebf 1abe 6daa 9dbb
00000010: 7275 e7bd 8d83 27be 0dfa 5dbd 6cdf f5bc
00000020: 1838 c6bd ebd7 0fbe d6fe 433c a8d4 ecbd
00000030: 458b 03bd 6eba 64bd f42d 7e3c 24ad a23d
00000040: fb27 b9bd f1e1 05be d7a5 773d 8fed fa3d
00000050: 4033 cc3d 8dba bcbd f95d c73d f155 a63d
00000060: bcf3 933d 013c ea3c 160a 893d 7c09 f2bd
00000070: e833 9c3c 1806 33bd 9234 b2bd 4340 c03d
00000080: 6596 4abe 719c 1ebd ad29 83bc 710a 0c3d
00000090: a8d1 17be 75d0 2ebe 226f 973d 2c64 12bb
000000a0: 7aea d7bc 77e7 3d3e 5e97 b03d 3934 09bd
000000b0: d0b4 2dbc 1db4 82bd 95fa c43d 487d f53b
000000c0: 3d5e fe3d daad 423d e5c3 433d 783e 9b3e
000000d0: e842 143e a021 6b3d 1f4c 333d 4505 d4bc
000000e0: b7ce 2d3e fbb8 69bc e378 0b3d 09a6 4cbe
000000f0: 91c6 66bd c0e2 253e ca13 2cbc 1241 32bd
00000100: 9554 0b3d ac53 f73c 8ef9 3f3d d02f e33b
00000110: 04c6 b3bc 4c20 f43d 08fe 1bbd ba19 623c
00000120: 4d9d 1fbe 8cf2 633b 5705 9bbd e3c2 4e3d
00000130: b5c6 3fbc cdf6 d43d 0f25 75bd 1d42 fc3c
00000140: f681 cb3d 76da 8bbd 65f4 f63d 6982 a2bc
00000150: 8269 eb3d edd0 03be 9324 33bd addb da3c
00000160: b228 f83b 359e 173e 1242 d5bd 533e 2b3e
00000170: af5e 21be 8170 c73d 9572 98bc cbad 8d3d
00000180: 21ef 8cbd 00c1 7dbe da7b a9bd e7ca 0b3c
00000190: a1a9 20bd 9986 d1bd 92aa 40bd 9b25 c7bd
000001a0: 9d8f 7ebd 0ca3 ae3c 5cdd 0f3d 6a1e f5bd
000001b0: 886d 96bd 6770 643e c30b e4bd 2141 0bbe
000001c0: 9875 e53d 0273 643d 2cb4 5fbd 524f 5dbd
000001d0: b05c 0abd 1d44 0a3e 950d ce3d 0eac 923c
000001e0: a7a4 00bc 7c5f 0abd 7c78 bdbc 82d0 03bc
000001f0: 59f7 053c 612e 57bc c808 15bd da93 7cbc
00000200: 3f0a a9bc 381d 02bd 752d 1ebd c77d 0fbd
00000210: 44b0 0f3c fa3f 2e3b 7507 19bc bbe3 15bd
00000220: 5182 0cba 6d99 a53b 9ad9 ddbc 1868 163d
00000230: 1312 a23c 7acd c6bc c431 913b 22d5 30bc
00000240: 57d4 133d 5b59 edbc 99ce 403c 6463 09bc
00000250: 8a8a c53b 01f3 163b 17b6 9a3c 261c d8bc
00000260: 57af e73c efba a13c d91c 11bd a753 b93c
00000270: a812 c53c 0b3b 0fbd 3cf1 1ebd 9ed1 a8bb
00000280: 97d9 c73d 8219 533e 3214 843d 5ae8 963c
00000290: b2f4 623e 17e2 fa3d af80 f2bd c148 ff3d
000002a0: e168 e7bc 0791 c73d 93e6 04bd 7263 65be
000002b0: a6ae ddbd 8db1 a6bd 4358 debd 049d 993d
000002c0: 61ab 903d d5b0 e83d 7096 073e 8171 d03d
000002d0: f547 0d3e 1c7d 6b3c d481 823d a117 343e
000002e0: fc53 b33d 19f4 0c3b f53d b13d d627 32be
000002f0: dcba ce3d d6d1 483d 8aa6 b73a b056 a43b
00000300: 83ba 9b3d 9326 9b3c 0b2a 1abe e139 213d
00000310: c216 913d b4e9 92bc 4525 1c3e 6c81 47bd
00000320: 2697 c5bd 408f e4bd 0be6 083e 6a43 8c3c
00000330: ee92 0bbe b55e 1dbe 7fbd 1abe 1772 393d
00000340: bad8 b0bd 5625 e3bd cecc 2b3c 7146 c2bd
00000350: 4469 013d 1591 943d a996 e93c 3faf ffbd
00000360: 79df 083d 8822 9f3d 736e 02bd 5a32 cfbd
00000370: df5d 263d 0a6f c03d ae6f 85bd e56d 9abd
00000380: a12c a9bd 6742 f0bc 18d5 39bd e8f5 cd3c
00000390: 5a7d 10bd 1b54 dc3d 4646 bcbd 3e84 ecbb
000003a0: 1b9c d1bd 4c27 b33c 0062 d6bc fbda 9c3b
000003b0: 67f1 06be 28c1 983d 5fbe 00be 7e4f 093d
000003c0: 5024 033b d281 233e 6bf8 e3bd c7ff cdbc
000003d0: c8cc d7bd 1647 91bc 8db2 03bb 977e 983c
000003e0: 8ccf 3a3e 5af4 f0bd caf4 8a3c f9e3 173e
000003f0: ca31 d83d 17b1 7b3d 92a9 0cbd 290e 49bd
-0.055074103 0.101505816 -0.15112159 -0.004811576 -0.11301698 -0.16358776 -0.054193545 -0.030013762
-0.09678668 -0.1404721 0.011962613 -0.115639985 -0.03211524 -0.055841856 0.015513886 0.0794318
-0.09040829 -0.13074471 0.06046089 0.12252342 0.09970713 -0.09215269 0.09734721 0.08121861
0.07224223 0.028593065 0.06691377 -0.11818215 0.01906772 -0.043706983 -0.08701433 0.09387257
-0.19783933 -0.038723413 -0.016011083 0.034189645 -0.14826071 -0.17071708 0.07394244 -0.002233754
-0.026356924 0.18545328 0.08622621 -0.03349707 -0.010602191 -0.0638201 0.09618107 0.0074917413
0.12420318 0.04752908 0.04779424 0.30321097 0.14478648 0.057405114 0.043773767 -0.025881419
0.16973387 -0.014265294 0.034050833 -0.19985212 -0.05634171 0.1619978 -0.010502765 -0.043519087
0.03401621 0.030191265 0.046868853 0.00693319 -0.021945007 0.11920223 -0.03808406 0.013800079
-0.15587349 0.003478202 -0.07569378 0.050478827 -0.01170509 0.10398636 -0.059849795 0.030793244
0.099368975 -0.068287775 0.12058333 -0.019837575 0.114947334 -0.12872668 -0.04373605 0.026716078
0.0075732106 0.14806445 -0.104129925 0.16722994 -0.15758775 0.09738255 -0.018609324 0.06917914
-0.06881548 -0.24780655 -0.08275576 0.008532262 -0.03922427 -0.102307506 -0.04703767 -0.097239695
-0.06214868 0.021317981 0.035123214 -0.11968692 -0.0734511 0.22308503 -0.11135056 -0.13599063
0.1120407 0.055773742 -0.054615185 -0.054030724 -0.0337798 0.13502546 0.10061184 0.017904308
-0.007851756 -0.033782467 -0.02312874 -0.008045318 0.008176648 -0.013133616 -0.036385328 -0.01541611
-0.020634769 -0.031766146 -0.03861757 -0.03503206 0.008770052 0.0026588426 -0.009340157 -0.036594134
-0.0005359995 0.00505369 -0.0270813 0.036720365 0.01978401 -0.0242679 0.0044309814 -0.010793002
0.036091175 -0.028973272 0.011768007 -0.008385513 0.006028478 0.0023033025 0.018885655 -0.02638061
0.02828185 0.019742457 -0.035427902 0.022622896 0.024056748 -0.034968417 -0.038804278 -0.0051519414
0.09758299 0.20615199 0.064491645 0.01842134 0.22163656 0.122501545 -0.11840951 0.124650486
-0.028248252 0.09744459 -0.032446455 -0.22401217 -0.10824327 -0.08139334 -0.10856678 0.075006515
0.07063938 0.11361853 0.13240981 0.10177899 0.1379698 0.01437309 0.06372419 0.17587139
0.08756253 0.0021507798 0.086543955 -0.17398009 0.10094234 0.04902824 0.0014011425 0.005015217
0.07603934 0.018939292 -0.150551 0.03936184 0.07084419 -0.017933704 0.15248592 -0.04870741
-0.0964797 -0.11160135 0.13369004 0.01712199 -0.13630268 -0.15368159 -0.1511135 0.04527482
-0.08635087 -0.11091106 0.010485841 -0.09486092 0.03159453 0.07254235 0.028514223 -0.124845974
0.033416245 0.07770258 -0.031843614 -0.10117026 0.040616866 0.09396179 -0.06515442 -0.07540492
-0.082604654 -0.029328538 -0.045369238 0.025141671 -0.035275795 0.10758229 -0.09193091 -0.007217913
-0.10234853 0.021869324 -0.026169777 0.0047868467 -0.13178025 0.07458717 -0.12572621 0.033523075
0.0020010658 0.15967491 -0.11131366 -0.025146378 -0.10537106 -0.017734092 -0.0020095438 0.01861505
0.18243235 -0.11765356 0.016962428 0.14833058 0.105563715 0.061448183 -0.034341402 -0.04908577

fc2.bias f4 [20]
00000000: e1d3 ea3d e706 f9bd f6b1 0a3d acdb 5ebc
00000010: 5938 dabc 4dd5 c73d a7ac 52bd 6282 81bd
00000020: dc7b 27bd bbcd f33c 3ca2 49bd 24a6 1c3e
00000030: 043a 393e 9928 0ebd 80f2 17bd 268e d53d
00000040: ae0a 0a3e 5dd3 0b3e ac3b 0d3e f16d c83d
0.11466194 -0.1215952 0.033861123 -0.013602179 -0.026638197 0.09757481 -0.051434185 -0.06323697
-0.040889606 0.029761186 -0.049226984 0.15297753 0.18088537 -0.034706686 -0.0370965 0.10427503
0.13480636 0.13654847 0.13792294 0.09786595

fc3.weight f4 [10, 20]
00000000: 71a8 7ebd 26d4 ee3d 9285 99be 8726 53bd
00000010: b6e4 bfbc b542 80bc 345c 023e c9d5 4c3e
00000020: 45af 033e 817b 39be e531 a93c 940e 8d3c
00000030: 956b dd3d 148a c4bc 62d5 df3a 4c90 833e
00000040: b885 2d3e d686 473e 7652 1abe 4059 20be
00000050: 9582 cdbd f59d e0bd 88ff c33d e2fd 213d
00000060: d2d9 5d3e 618b 55bd 1b4a d43d 1d75 6a3e
00000070: e9bb 97bd ae8f 373e 7671 98bd 2d61 6dbc
00000080: 7b4f 1e3e d3bc 1c3d ce5b ddbc 152a 113d
00000090: 2d77 cfbd 2cb9 9d3d 9802 70bd 6cb8 443e
000000a0: c6d4 d43d 4c16 0d3d 5d89 333e b38b 5ebd
000000b0: 51a2 26be 2189 ab3d e293 2dbe 0b91 313e
000000c0: b5bc 7f3e 1955 a03c 8e69 37be a375 5a3e
000000d0: 6d19 053e c9f1 c0bc 2d0e 7cbd 45e5 ae3c
000000e0: 9c20 dd3c 3e3b 92bd 3111 48be 4a45 68bd
000000f0: 7525 0dbe 75d5 88be e899 933d dd01 d63b
00000100: 920d 44bd 074b 09be c24b 0abe d07e 743e
00000110: f4c5 3e3d f065 7bbe 9a9b 07be 46a4 863e
00000120: a5a4 e33d d6d0 2a3d 4d8e 16bc 7035 313d
00000130: fb5f 863e d358 cbbd ace4 90bd ea41 97bd
00000140: 9084 21be 8f22 0dbe 8b7b 2abe 7d31 0a3d
00000150: 9594 e9bd 1279 5e3d 9364 cdbd a0ae 423d
00000160: b181 86bd 14eb 29bd f0d9 fb3d 8710 48be
00000170: e40b 68be 25f6 2f3d 1eb6 33bd 16e0 21be
00000180: d205 81bd f19a 5abe 247a c9bc 4be7 093e
00000190: 8f3b 4abe 00b0 59be 055b 1d3e 9659 9a3b
000001a0: 40df 22be 5890 debd ce65 a7be 9720 edbd
000001b0: 7cde 83be 8007 8a3d 4d00 66be 5399 e1bc
000001c0: 02b0 4f3b 1f45 7c3b 8b30 47bd a23d 043e
000001d0: 8adc 103d 0cc6 433e e15c b0bd 9228 473e
000001e0: 2b61 263e d027 f7bd 19ac d23c 725d f73b
000001f0: e344 9a3d dec7 383d 95ad 22be 57f1 3abe
00000200: 097c 363e 0075 58be 74b6 57be 1936 223e
00000210: c53f 64be ac54 43bc e2d9 73bc 6bfc 86be
00000220: d1bf 87bd 1c1c 0e3e 4ff6 61bc adcc 2b3e
00000230: 33b2 de3d a630 63be 4bc4 81be 16b1 20bd
00000240: 366e 7dbc d397 6ebe f746 f7be 082a d23d
00000250: 6330 0f3e 94e1 43be 0757 7cbd b932 93bc
00000260: 3459 82be bc96 b3bc fb36 0b3d 138d afbd
00000270: e836 823d 02bc ffbb 88e6 753d 399d b83d
00000280: 709c b3bb 6bd3 5dbe 4065 8abc 5b24 cd3c
00000290: f79a 203c ebf7 453d 6691 8cbe f997 37bd
000002a0: 0f25 8f3d c55d 7abe bb06 67bd aca8 e63b
000002b0: 5234 66bd 80fc 183d 94ed 1cbb 53d4 563d
000002c0: 2d6a 7dbe 696c b1bd 8960 26be 8666 e7bc
000002d0: e401 6c3d 3a10 97bd 5167 26bd 2669 1fbd
000002e0: 18f5 f6bc b977 ef3d 300d 47be 8fed cd3d
000002f0: c7e3 ae3c 551c 96be ea9c 79be e024 2dbe
00000300: bada c73d 19e6 f33c 3e57 a63b 0db6 18be
00000310: 1976 da3d c744 9f3d 13fb 4bbc 057b de3d
-0.062172357 0.11661558 -0.2998472 -0.051550414 -0.023424488 -0.015656808 0.12730485 0.20003428
0.12859829 -0.18113519 0.020653674 0.017218865 0.10811535 -0.023991622 0.0017077143 0.25696027
0.16945541 0.1948503 -0.15070519 -0.15659046 -0.10034672 -0.10967628 0.09570223 0.039548762
0.21665123 -0.052134875 0.10365697 0.22896238 -0.07408888 0.17925903 -0.07443516 -0.014488501
0.15460007 0.038266014 -0.027021315 0.035440523 -0.10130153 0.07701334 -0.058596224 0.19210976
0.10392146 0.034445092 0.17532869 -0.054332446 -0.16272856 0.08375765 -0.16950944 0.17340486
0.2497433 0.019571828 -0.1791136 0.21333937 0.1299798 -0.023552792 -0.061536957 0.021349559
0.026993088 -0.07140206 -0.19537808 -0.056706704 -0.1378382 -0.26725355 0.0720709 0.006530984
-0.047864504 -0.13407527 -0.13505462 0.238765 0.0465755 -0.24550605 -0.13242951 0.26297206
0.11115388 0.041703068 -0.009189201 0.043263853 0.26245102 -0.09929051 -0.07074866 -0.07385619
-0.15773225 -0.13782714 -0.1664869 0.033738602 -0.11405293 0.05431468 -0.10028949 0.047529817
-0.065677054 -0.041483954 0.12297428 -0.19537555 -0.22660786 0.04295935 -0.043874852 -0.15808138
-0.06299938 -0.21348168 -0.024594374 0.13467138 -0.19749282 -0.21258545 0.15366752 0.0047103865
-0.15905476 -0.10867375 -0.32694858 -0.11578482 -0.2575568 0.06739712 -0.22461052 -0.027538931
0.0031690602 0.0038493348 -0.04863028 0.12914136 0.035366572 0.19118518 -0.08611465 0.1944907
0.16248004 -0.120681405 0.025716828 0.0075489813 0.0753267 0.045112483 -0.15886529 -0.18256126
0.17820753 -0.21138382 -0.21065694 0.15840949 -0.22289951 -0.011922043 -0.01488349 -0.26364455
-0.06628383 0.1387791 -0.013791635 0.16777296 0.108738326 -0.22186527 -0.25345072 -0.039231382
-0.015468171 -0.23300104 -0.4829633 0.10261923 0.13983302 -0.1912902 -0.061606433 -0.017968522
-0.25458682 -0.021922462 0.03398798 -0.0857183 0.06358129 -0.0078043947 0.060034305 0.09014363
-0.0054812953 -0.21662681 -0.016893983 0.02504175 0.0098025715 0.048332136 -0.2745468 -0.044822667
0.0698949 -0.24449833 -0.056402903 0.00703915 -0.05620224 0.037350178 -0.0023945319 0.052448582
-0.24747534 -0.08663256 -0.16247763 -0.02824713 0.05761899 -0.07376142 -0.040625874 -0.038918637
-0.030146167 0.11692757 -0.19438624 0.10055076 0.021348847 -0.2931849 -0.24376264 -0.16908598
0.09758516 0.029772805 0.005076318 -0.14913197 0.106670566 0.0777679 -0.0124499975 0.10863308

fc3.bias f4 [10]
00000000: 7540 c6bc 61c0 4d3c 9469 54be 23c4 de3d
00000010: a2f1 6fbe 3f61 37be 50bc 653d b7eb 5bbd
00000020: 8f77 113d 8d84 6dbe
-0.024200657 0.012558074 -0.207434 0.10877254 -0.2343202 -0.1790819 0.056087792 -0.053691592
0.03551441 -0.23195095
