models/classifier/classifier-1650304609.pth (torch, 33345 bytes, 12 tensors)

conv1.weight f4 [5, 1, 5, 5]
0	0x3e4fc945	0.20291622
1	0x3e396702	0.181057
2	0x3e41cc6f	0.18925641
3	0x3cb4a7f8	0.02205275
4	0x3dd24b8e	0.10268317
5	0x3e27e0a4	0.16394287
6	0xbe2cda5b	-0.16880171
7	0xbdf09940	-0.1174798
8	0xbe3d2261	-0.18470146
9	0x3e358a61	0.17728569
10	0x3e22d66f	0.15902112
11	0x3d646f26	0.055770062
12	0xbe24855a	-0.16066495
13	0x3c80e9a9	0.015736418
14	0x3dc44baa	0.09584744
15	0x3d8d45cc	0.06898078
16	0x3cfc3ce7	0.03079076
17	0x3de360f6	0.11102478
18	0xbddbc162	-0.10730244
19	0xbdfe3948	-0.12413269
20	0xbe325455	-0.17414983
21	0x3c3366ee	0.010949833
22	0x3dbc6353	0.09198632
23	0x3da4eda4	0.08053139
24	0xbc63b052	-0.0138970185
25	0x3e193a21	0.1496358
26	0xbde03187	-0.109469466
27	0x3e0bde0c	0.13658923
28	0x3d667337	0.05626222
29	0xbde0ef86	-0.109831855
30	0xbe10a85e	-0.14126727
31	0x3de34673	0.110974215
32	0x3dafde18	0.08587283
33	0xbd9654f4	-0.07340422
34	0xbe0b75c7	-0.13619147
35	0x3e1de625	0.15419824
36	0xbe023a59	-0.1271757
37	0x3de514fb	0.11185642
38	0xbe15aa1e	-0.14615676
39	0xbba3a966	-0.004994559
40	0x3db7a2f4	0.08966628
41	0x3da9e440	0.08295488
42	0xbdbc1003	-0.091827415
43	0xbd59d748	-0.053183824
44	0xbe11d87c	-0.14242738
45	0x3b8cda89	0.0042985124
46	0xbe1977da	-0.14987126
47	0x3d5e42d8	0.054262966
48	0xbdcb4511	-0.09925283
49	0x3b244fdc	0.0025072014
50	0x3e50e929	0.20401444
51	0x3dcc32df	0.099706404
52	0x3e21dd05	0.15806969
53	0x3e7a1889	0.24423422
54	0x3d87a67f	0.066235535
55	0x3e4669a9	0.19376244
56	0x3e0a22a9	0.13489784
57	0x3daab931	0.08336104
58	0x3ea56b9a	0.32308656
59	0x3d2f19f5	0.042749364
60	0x3e61245c	0.21986526
61	0x3e62993d	0.22128768
62	0x3e393954	0.18088275
63	0x3d303dd6	0.04302772
64	0x3e9ae2b7	0.30251095
65	0x3ea05852	0.31317383
66	0x3e4ea2c2	0.20179275
67	0x3e3b8ddc	0.18315834
68	0x3e8e9995	0.2785155
69	0x3e715643	0.23568062
70	0xbd9d641b	-0.07685109
71	0xbdaefbe1	-0.08544136
72	0x3d45344f	0.04814559
73	0x3e9ebc66	0.31003112
74	0x3db86e1b	0.09005376
75	0x3d938628	0.07203323
76	0x3e7225fe	0.23647305
77	0xbdd33f4d	-0.10314808
78	0xbd17d989	-0.037072692
79	0x3dc52541	0.09626246
80	0x3e9918c8	0.2990172
81	0x3daa7e01	0.083248146
82	0x3e4d4d2b	0.20048968
83	0xbdaa7ec4	-0.0832496
84	0xbd2c953c	-0.04213451
85	0x3e7970eb	0.24359481
86	0x3da64d4d	0.08120213
87	0xbe08c4d9	-0.13356341
88	0x3e1a4888	0.15066731
89	0x3d903114	0.07040611
90	0xbdc9d5cc	-0.09855232
91	0xbdbb59c4	-0.09147981
92	0x3e3b55b4	0.18294412
93	0x3d3ed421	0.04658902
94	0xbd2761a6	-0.04086461
95	0x3e47e5d0	0.1952126
96	0x3e3ec883	0.18631177
97	0xbe377b97	-0.1791824
98	0xbde09c1b	-0.10967275
99	0xbe3996d1	-0.18123938
100	0x3dce2ef3	0.100675486
101	0x3d568320	0.052371144
102	0x3d82ab2c	0.06380305
103	0x3dc41b66	0.09575538
104	0xbd2b073d	-0.04175495
105	0xbd897804	-0.06712344
106	0xbd209286	-0.039202236
107	0x3d83c77e	0.064345345
108	0x3e681c63	0.22667079
109	0x3e8764ed	0.26444188
110	0x3e3646d3	0.17800455
111	0xbd7c4446	-0.061588548
112	0x3e856dba	0.26060277
113	0x3e8720fc	0.26392353
114	0xbdbc2595	-0.09186856
115	0x3df4a927	0.11946326
116	0x3e63f7a0	0.2226243
117	0x3e6afd0f	0.22948097
118	0x3defbf83	0.1170645
119	0x3e63f04b	0.22259633
120	0x3d864c79	0.06557555
121	0x3d3ee947	0.04660919
122	0x3e9f522d	0.31117383
123	0x3e88faba	0.2675379
124	0x3e8015da	0.2501667

conv1.bias f4 [5]
0	0xbad6d27f	-0.0016389637
1	0xbdd0a1e4	-0.10187128
2	0x3e8322f8	0.25612617
3	0x3dc57759	0.096419044
4	0x3d25d118	0.04048261

conv2.weight f4 [10, 5, 5, 5]
0	0xbd8115ac	-0.06302962
1	0xbd0cf0ac	-0.03440921
2	0xbd904c4e	-0.07045804
3	0x3d78c3c6	0.06073358
4	0xbd9adaa0	-0.07561231
5	0x3c5b7fc1	0.013397158
6	0xbcf3301d	-0.029686028
7	0x3cb972f4	0.022637822
8	0x3d86b267	0.06576996
9	0xbbaca1d7	-0.0052683163
10	0xbd89be74	-0.06725779
11	0x3c9c0122	0.019043509
12	0x3d1c92c5	0.038225908
13	0xbcdbb93f	-0.02682173
14	0xbd335591	-0.043782774
15	0x3d85a46d	0.06525502
16	0x3b3afcf3	0.0028532117
17	0x3d901f15	0.070371784
18	0xbd8a57e9	-0.06755049
19	0xbd95dd21	-0.073175676
20	0x3cce9e05	0.025221834
21	0x3d7c2363	0.061557185
22	0x3c009785	0.007848625
23	0x3d6f6182	0.0584426
24	0x3c7ca859	0.015420997
25	0xbc9c8342	-0.019105557
26	0x3d0779d8	0.033075184
27	0xbb5b4c9c	-0.003346241
28	0x3d7aa440	0.061191797
29	0x3cfd29c1	0.030903699
30	0x3a4f5baa	0.00079100823
31	0x3d018648	0.0316222
32	0x3c8de7bb	0.017322412
33	0x3dae8d51	0.08523048
34	0x3d500a57	0.05079111
35	0xbd361257	-0.044451084
36	0xbbb5afd4	-0.005544642
37	0x3da84098	0.08215445
38	0xbd1af78f	-0.037833747
39	0xbba363aa	-0.004986246
40	0x3cbfbcad	0.023405397
41	0xbd9d7e69	-0.076901264
42	0xbd4ac302	-0.04950238
43	0xbdac5309	-0.08414275
44	0xbdaa3274	-0.083104044
45	0xbd9ba27d	-0.075993516
46	0x3d5b4285	0.053530235
47	0xbd669dcf	-0.05630284
48	0x3d765ef9	0.060149167
49	0x3d364eee	0.044508867
50	0x3db439e9	0.08800108
51	0xbbfa9ecb	-0.007648324
52	0xbd97058a	-0.07374103
53	0xbd9e4a45	-0.077290095
54	0xbd459bbc	-0.048244223
55	0x3d38a586	0.04507973
56	0xbdacbec4	-0.08434823
57	0x38891ffa	6.538625e-05
58	0xbd557705	-0.05211546
59	0x3d66f16e	0.05638259
60	0xbda3a141	-0.07989741
61	0xbcb30b14	-0.021855868
62	0x3c8e11a1	0.01734239
63	0x3c78c193	0.01518287
64	0xbd3eb27e	-0.046556942
65	0xbd7940db	-0.060852867
66	0xbd847f61	-0.06469608
67	0xbda5e640	-0.08100557
68	0x3da82f87	0.0821219
69	0x3d8411af	0.064486854
70	0xbda77bdf	-0.081779234
71	0xbd58b97e	-0.052911274
72	0xbcf9e52a	-0.030504782
73	0xbcc59318	-0.024117991
74	0xbd6f4ae9	-0.05842105
75	0xbbc90440	-0.00613454
76	0xba7a0406	-0.00095373427
77	0x3d8c56df	0.06852507
78	0x3da913ce	0.082557306
79	0xbd9a939d	-0.07547686
80	0x3d838b4f	0.064230554
81	0xbcab93fe	-0.020944592
82	0x3d74a41a	0.059726812
83	0x3ce9b875	0.028530339
84	0xbd682bdd	-0.056682456
85	0x3d2816fb	0.04103754
86	0x3dabe827	0.08393889
87	0xbceace00	-0.028662682
88	0xbc524820	-0.012834579
89	0xbd7ce917	-0.06174573
90	0xbd6960b7	-0.056977
91	0xbc1bf2b2	-0.009518312
92	0xbc15fcbf	-0.009154498
93	0xbd1360ff	-0.035981175
94	0x3d30f4d5	0.04320224
95	0x3cf7e288	0.030259386
96	0x3c075c75	0.00826179
97	0x3c936b16	0.017995398
98	0xbd8d7009	-0.06906135
99	0xbc90c4d5	-0.017671982
100	0x3cc61f55	0.024184862
101	0x3d96ed02	0.073694244
102	0xbcb58ee9	-0.022162871
103	0xbbd1883e	-0.006394415
104	0x3d8dba90	0.069203496
105	0x3c921d01	0.017836096
106	0xbd3f9a37	-0.04677793
107	0xbcd3f049	-0.025871413
108	0xbc8d7460	-0.017267406
109	0x3d7ec0c4	0.062195554
110	0xbcfce5e7	-0.030871345
111	0xbd52d9be	-0.051477186
112	0xbd218fd1	-0.039443795
113	0xbd9ef193	-0.077609204
114	0x3d03596f	0.032067712
115	0xbd9dcb17	-0.07704752
116	0x3db70235	0.08935968
117	0xbbd5fac9	-0.00653014
118	0xbad2de1a	-0.001608792
119	0x3d9767b2	0.07392825
120	0x3cd333f0	0.025781602
121	0x3d9647d6	0.0733792
122	0xbc09d58d	-0.008412731
123	0xbd9f4d1e	-0.07778381
124	0xbd9fa6ed	-0.077955104
125	0xbd46b500	-0.04851246
126	0x3dbe7cdd	0.093011595
127	0x3d580b0e	0.052744918
128	0xbd13dbc6	-0.036098264
129	0x3d6c1588	0.05763772
130	0x3b7fd988	0.003903957
131	0x3c8f8969	0.017521577
132	0xbcc12c15	-0.02358059
133	0x3d3e54ad	0.046467472
134	0xbbcf7ce1	-0.0063320254
135	0xbd3eb04d	-0.046554852
136	0x3da1cbaa	0.07900174
137	0xbd8a2c7d	-0.06746767
138	0x3cf7b6dc	0.030238561
139	0xbd23553e	-0.039876215
140	0x3cce0a53	0.025151407
141	0xbd477dd8	-0.048704
142	0x3d2295ac	0.03969352
143	0xbd92ecfc	-0.071741074
144	0xbd10e5f8	-0.035375565
145	0xbd543b01	-0.051814083
146	0xbc9b0b7c	-0.018926375
147	0x3d0f095e	0.034921043
148	0x3d84a6b0	0.064771056
149	0xbd48daf8	-0.04903695
150	0x3da85378	0.082190454
151	0xbd97293d	-0.073809125
152	0xbcea59ad	-0.028607214
153	0xbd8407df	-0.06446814
154	0xbc38d693	-0.011281627
155	0x3dab7afa	0.08373065
156	0x3c41ef50	0.011836842
157	0xbd3b842d	-0.04578035
158	0xbd3ee92a	-0.04660908
159	0x3c94782d	0.01812371
160	0x3da5b1d5	0.080905594
161	0xbd66910f	-0.056290682
162	0x3dab0207	0.08349996
163	0xbd9db4a8	-0.07700473
164	0xbcdfab60	-0.027303398
165	0x3b176235	0.0023099307
166	0x3cc79db0	0.024367183
167	0x3d97f1e7	0.07419186
168	0x3d383217	0.044969644
169	0xbcd27e86	-0.025695097
170	0x3da27065	0.07931594
171	0x3d3b8a3e	0.045786135
172	0xbbe811d5	-0.007082204
173	0x3c28e3ac	0.010308187
174	0xba3cc4cc	-0.0007200956
175	0x3dfadc97	0.122491054
176	0x3d898d2b	0.06716379
177	0x3cef3390	0.029199392
178	0xbcfed78c	-0.03110864
179	0xbd53c891	-0.051704947
180	0x3dceec36	0.101036474
181	0x3c8ab32f	0.016931145
182	0x3dc8a3c6	0.09796862
183	0x3db307b4	0.08741704
184	0x3cc410ca	0.023933787
185	0x3dc16262	0.09442593
186	0x3d388b6f	0.04505485
187	0xbc3da05d	-0.011573878
188	0x3c9472ec	0.018121205
189	0xbcd83871	-0.0263941
190	0x3d0cf4fe	0.03441333
191	0xbbce5894	-0.0062971804
192	0x3df5c60d	0.12000666
193	0x3c128374	0.008942474
194	0x3d447f53	0.04797299
195	0x3e01c54f	0.12672924
196	0x3e2f0852	0.17093018
197	0x3d5cb884	0.053886905
198	0x3dce9f90	0.10089028
199	0x3db330a9	0.087495156
200	0xbc25fcac	-0.010131042
201	0x3d8e2283	0.06940176
202	0xbba19ddd	-0.004932149
203	0xbd469566	-0.04848232
204	0x3d6545cb	0.055974763
205	0x3d1b4073	0.03790326
206	0x3bbe355f	0.005804702
207	0x3cec8fd2	0.028877173
208	0x3dc99d31	0.09844435
209	0xbca4e571	-0.020128937
210	0xbcd8a5ff	-0.02644634
211	0x3d669f91	0.056304518
212	0x3dc74abd	0.09731052
213	0x3c7a1515	0.015263815
214	0x3daa7d9f	0.083247416
215	0xbdbac7c7	-0.09120136
216	0xbd71ea85	-0.059061546
217	0x3dca834e	0.09888326
218	0x3d1edbef	0.038783964
219	0xbd5f12b5	-0.0544612
220	0x3d9ce889	0.0766154
221	0x3d48e3bf	0.04904532
222	0xbcf6ed03	-0.030142313
223	0x3c8a1d64	0.016859718
224	0x3d9db4dc	0.07700512
225	0x3dcf715d	0.10129044
226	0x3dc56c3e	0.09639786
227	0xbcb35164	-0.021889396
228	0xbcf9f5ee	-0.030512776
229	0xbdc43eb9	-0.09582276
230	0xbbf90702	-0.0075997123
231	0xbd4cadf0	-0.049970567
232	0xbd57dd09	-0.05270103
233	0x3da12b87	0.0786963
234	0xbd849c61	-0.064751394
235	0xbccc9e10	-0.024977714
236	0x3df403cf	0.11914789
237	0x3d5ebffd	0.054382313
238	0xbd833a93	-0.064076565
239	0xbddb8d57	-0.10720318
240	0xbcc0407d	-0.02346825
241	0x3dcf9713	0.10136237
242	0x3c8655f7	0.016398413
243	0x3d87128a	0.06595333
244	0xbc55f04e	-0.013057781
245	0x3e0301f7	0.12793718
246	0x3db3295f	0.08748125
247	0x3d963ac6	0.07335429
248	0x3ccf7660	0.025325
249	0x3d6c0bfc	0.057628617
250	0x3c792ea4	0.015208874
251	0x3c179bf0	0.009253487
252	0x3d72da4f	0.059290227
253	0xbd2b3988	-0.041802913
254	0x3ce06ad9	0.027394699
255	0xbc4ff2f8	-0.012692206

conv2.bias f4 [10]
0	0xbbbabe6c	-0.0056989696
1	0x3c459948	0.012060471
2	0xbc39d15f	-0.011341422
3	0x3d82b4ca	0.06382139
4	0xbd0a7a88	-0.03380826
5	0x3bd4a907	0.006489876
6	0xbd60483a	-0.05475638
7	0x3ce8136f	0.02832958
8	0x3bed3e00	0.007240057
9	0x3cd4a623	0.025958126

conv3.weight f4 [20, 10, 3, 3]
0	0x3d22a04c	0.039703652
1	0x3d383e6b	0.0449814
2	0x3d29522f	0.041338142
3	0xbd931902	-0.07182504
4	0x3daa0ab8	0.08302826
5	0x3d7f9887	0.06240132
6	0xbd8bb010	-0.06820691
7	0xbda4511d	-0.08023284
8	0x3d2e6e8d	0.0425859
9	0x3de15b7d	0.11003778
10	0x3dd5ddaf	0.104426734
11	0xbcf88c9c	-0.030340485
12	0x3e25c833	0.16189651
13	0x3e1133fe	0.1417999
14	0x3c8c3127	0.017113281
15	0x3df786d6	0.12086265
16	0x3e08a467	0.13343965
17	0x3de96a25	0.113971986
18	0x3dcbfbc7	0.09960132
19	0x3e2f5dd7	0.17125641
20	0x3c8bc6c7	0.017062558
21	0x3d4f76cf	0.050650414
22	0xbd4a18e8	-0.04934016
23	0x3d557f59	0.0521234
24	0x3dc5fdf4	0.09667578
25	0x3e049f76	0.12951455
26	0xbd38820d	-0.0450459
27	0x3d3d5ba4	0.046229973
28	0xbdc21e0e	-0.09478389
29	0xbdbb8726	-0.09156637
30	0x3d22163f	0.039571997
31	0xbd77527b	-0.060381394
32	0x3daf2115	0.08551232
33	0xbc9dc443	-0.019258624
34	0x3ce5ccc2	0.028051738
35	0xbc81159f	-0.01575738
36	0xbb847842	-0.004042656
37	0x3d98e8e1	0.07466293
38	0xbd90e173	-0.07074251
39	0x3d8c7e7a	0.06860061
40	0xbcbfe48f	-0.023424415
41	0x3d9bc2d1	0.07605518
42	0x3cf6e546	0.030138623
43	0x3d574a23	0.052560937
44	0xbe008af3	-0.12553005
45	0x3d96ded3	0.07366719
46	0x3dd6a64b	0.104809366
47	0x3e26dff1	0.16296364
48	0x3e017483	0.12642102
49	0xbdc6ab4d	-0.09700642
50	0x3d2c39a2	0.04204715
51	0x3d72816a	0.05920545
52	0xbdb66fbe	-0.08908032
53	0xbd349847	-0.044090535
54	0x3d6faf69	0.058516894
55	0xbd35730a	-0.044299163
56	0x3c15c095	0.009140153
57	0x3d1454e6	0.036213778
58	0xbccb8901	-0.024845602
59	0x3dbd18a5	0.09233216
60	0x3cf109e6	0.029423665
61	0xbd6f7cdb	-0.05846868
62	0xbd33f240	-0.0439322
63	0x3d67c6c5	0.056586046
64	0xbdcb4219	-0.099247165
65	0xbcd768c4	-0.026295073
66	0x3d3403f5	0.043949086
67	0x3d8e317d	0.06943033
68	0xbd4bd015	-0.04975899
69	0xbd9033ec	-0.07041153
70	0x3e153e69	0.14574589
71	0x3c5b1654	0.013372023
72	0xbd8f0fd8	-0.06985444
73	0xbdabd320	-0.08389878
74	0x3dddb625	0.10825757
75	0xbd043f7a	-0.0322871
76	0xbd49c3be	-0.04925894
77	0x3db84060	0.089966536
78	0xbdbadc6e	-0.09124075
79	0xbdd3f143	-0.103487514
80	0x3d6156b7	0.05501434
81	0xbd983805	-0.0743256
82	0x3cfd4c48	0.030920163
83	0x3d38dd69	0.04513303
84	0xbda851da	-0.08218737
85	0xbdbba287	-0.09161859
86	0x3d5a81c6	0.053346418
87	0x3dbec708	0.09315306
88	0xbc57c8fb	-0.013170476
89	0xbda681b1	-0.081302054
90	0x3db81950	0.08989203
91	0xbd410738	-0.047126025
92	0xbaaff3a1	-0.0013424048
93	0x3d4eef29	0.05052105
94	0xbd63dc3a	-0.055629946
95	0xbc67d453	-0.014149743
96	0x3d76a7f2	0.06021876
97	0x3d63af31	0.055586997
98	0x3d0522ef	0.03250402
99	0xbd537f0d	-0.051634837
100	0x3da460f2	0.08026303
101	0xbb9be6fe	-0.004757761
102	0xbde3a0b8	-0.11114639
103	0x3de2ddc4	0.11077455
104	0x3dc2b9d4	0.095081
105	0x3d474780	0.048652172
106	0xbca43fd6	-0.02004997
107	0xbd406b23	-0.046977174
108	0x3dbdfb1d	0.09276412
109	0x3de2bfb0	0.11071718
110	0x3ce49c45	0.027906546
111	0xbd9d22ad	-0.076726295
112	0x3d987786	0.07444672
113	0x3d3521f3	0.04422183
114	0xbe1f2b67	-0.155439
115	0x3c3d8eeb	0.011569719
116	0x3d8196ff	0.06327628
117	0xbda7d214	-0.08194366
118	0x3c90d301	0.01767874
119	0x3a79ca28	0.000952872
120	0xbd10e08d	-0.0353704
121	0xbc8d2b56	-0.017232578
122	0x3c91cff5	0.017799357
123	0x3dd00fc5	0.10159258
124	0xbddb6ad7	-0.107137375
125	0x3d75fd3e	0.060055964
126	0x3d363a55	0.044489224
127	0x3d85dacc	0.06535873
128	0xbcac97f3	-0.021068549
129	0x3d70986b	0.058739107
130	0x3c599990	0.013281241
131	0x3de99e0b	0.114070974
132	0xbdc82548	-0.09772736
133	0x3da7d24f	0.0819441
134	0x3de88c0c	0.11354837
135	0x3cf5d919	0.030010747
136	0xbbcccae9	-0.0062497747
137	0x3ddc516e	0.10757719
138	0xbd525333	-0.051348876
139	0x3dbcc344	0.092169315
140	0xbd6f3e06	-0.05840876
141	0x3bb810c8	0.005617235
142	0xbcab91dd	-0.020943576
143	0x3d5810e9	0.0527505
144	0x3d9a78c3	0.07542565
145	0x3da30b0a	0.0796109
146	0xbd60fb8c	-0.054927394
147	0xbc6dc57a	-0.014512414
148	0x3ddc03c2	0.10742904
149	0x3d9f39a4	0.07774666
150	0xbdef4dc8	-0.116847575
151	0xbcc26be9	-0.023733096
152	0x3e0e7076	0.13910088
153	0xbc66f185	-0.014095669
154	0xbd85d083	-0.06533911
155	0x3c28a878	0.010294072
156	0x3dc0535a	0.09390898
157	0x39db7e64	0.00041865103
158	0x3de69d94	0.112605244
159	0x3dc3d6e8	0.095624745
160	0xbc6ac9c1	-0.014330328
161	0x3dc634f6	0.0967807
162	0x3cc36f6a	0.023856837
163	0xbd240631	-0.040044967
164	0xbd41ebaa	-0.047343887
165	0xbd950f89	-0.07278354
166	0x3d29e11f	0.041474458
167	0xbc618d75	-0.013766636
168	0x3c2752eb	0.01021264
169	0x3dce9aea	0.10088141
170	0x3dc4b0b1	0.09604014
171	0xbd3d90f4	-0.046280816
172	0xbdbd3837	-0.09239238
173	0xbd267f67	-0.040648844
174	0xbdd53683	-0.10410788
175	0x3d81a433	0.06330147
176	0xbdaf0686	-0.08546166
177	0x3d391dcc	0.045194432
178	0xbc42ace7	-0.011882043
179	0x3b613a31	0.003436696
180	0x3d20f422	0.039295323
181	0xbd432f1c	-0.04765235
182	0xbd9e481b	-0.07728597
183	0x3daa3bdd	0.08312199
184	0xbce11c61	-0.027479352
185	0x3c1de9c4	0.009638254
186	0xbdca0ff1	-0.09866322
187	0xbd419d47	-0.047269132
188	0xbdb3aa2c	-0.08772692
189	0xbba1146d	-0.004915765
190	0x3da19528	0.078897774
191	0x3d5aa379	0.053378556
192	0x3d897c57	0.06713169
193	0xbd0f9108	-0.035050422
194	0xbc303a0a	-0.010756025
195	0x3da229da	0.07918139
196	0x3dc69799	0.09696884
197	0xbd8e9a9f	-0.069630854
198	0x3d4167cd	0.047218133
199	0xbc79f0b7	-0.015255145
200	0xbd07d978	-0.03316638
201	0x3da5aba4	0.080893785
202	0x3e1c666b	0.15273444
203	0xbdbddfb2	-0.09271182
204	0x3db8d342	0.09024669
205	0x3df01fdf	0.11724829
206	0x3db10625	0.0864375
207	0xbbfa7a90	-0.007644005
208	0x3c2388fd	0.009981391
209	0x3d8addd4	0.067805916
210	0x3d0f3fd3	0.034972977
211	0x3d54f09c	0.051987275
212	0x3d23b9e7	0.039972212
213	0xbda63b49	-0.081167765
214	0x3de8dad7	0.113698654
215	0x3ce4ec0c	0.027944587
216	0x3cd3b066	0.02584095
217	0x3d53780e	0.051628165
218	0x3d19c5d7	0.03754219
219	0x3ce517ab	0.027965387
220	0xbd005cd2	-0.03133852
221	0xbda0fa60	-0.07860255
222	0xbd57b24d	-0.052660275
223	0x3d530c3a	0.051525332
224	0x3ccaf121	0.024773182
225	0xbcd7f7d6	-0.026363295
226	0xbd8e1b80	-0.06938839
227	0x3d3c9a2e	0.046045475
228	0x3df08d29	0.11745674
229	0x3dc3a529	0.09552986
230	0x3d1bcf97	0.03803977
231	0x3e3082b4	0.1723736
232	0x3e1a07db	0.15042059
233	0x3defcc4b	0.11708888
234	0xbd5b054c	-0.05347185
235	0xbd772a1f	-0.060342904
236	0xbd06af84	-0.03288223
237	0x3d9c2201	0.07623673
238	0x3d33977c	0.04384564
239	0x3d6d2ce4	0.05790414
240	0x3dead0bc	0.11465594
241	0x3dd1494d	0.10219059
242	0xbd69a8cc	-0.057045743
243	0x3d925efc	0.07147023
244	0xbd9a9df3	-0.07549658
245	0x3dc3656c	0.09540829
246	0x3c8b62dc	0.017014913
247	0x3db4dc2f	0.08831059
248	0xbdaceebc	-0.084439725
249	0xbd563ae8	-0.05230227
250	0xbd907e8a	-0.070553854
251	0x3da1b04e	0.078949556
252	0xbd50aa9b	-0.050943952
253	0xbdcff3dd	-0.10153935
254	0xbc664244	-0.014053885
255	0x3d16263f	0.036657568

conv3.bias f4 [20]
0	0x3dca14fb	0.09867283
1	0xbd1ae0d6	-0.037812077
2	0xbcbcccda	-0.0230469
3	0x3d33684a	0.04380063
4	0xbdce382f	-0.1006931
5	0xbd241b0e	-0.040064864
6	0x3e0770f5	0.13226683
7	0x3d187dd6	0.03722938
8	0xbda486bb	-0.0803351
9	0x3ca86176	0.020554285
10	0x3d8f04ae	0.069833145
11	0x3deb3950	0.11485541
12	0x3df6a581	0.12043286
13	0x3c59005b	0.013244714
14	0x3d918ecd	0.07107315
15	0xbdae0afc	-0.08498189
16	0xbc15ad54	-0.009135563
17	0xbd0542c0	-0.03253436
18	0x3cddddbb	0.027083268
19	0xbba1e250	-0.0049403086

fc1.weight f4 [40, 80]
0	0x3cfc8530	0.030825227
1	0xbd5473e1	-0.051868323
2	0x3d57a008	0.052642852
3	0xbd68c936	-0.056832515
4	0xb9e2a500	-0.00043229014
5	0xbc978028	-0.018493727
6	0xbd82ee70	-0.063931346
7	0x3d9237b6	0.07139532
8	0xbce2f034	-0.027702428
9	0xbdc890c8	-0.0979324
10	0xbd8a86e8	-0.067640126
11	0xbd9950fd	-0.074861504
12	0xbd93f87c	-0.07225129
13	0x3d4ba34c	0.04971628
14	0xbd9adddc	-0.075618476
15	0xbd9d4589	-0.076792784
16	0x3cf61f88	0.030044332
17	0x3d9c4e18	0.07632083
18	0x3dd30160	0.10302997
19	0x3d83745a	0.06418677
20	0x3d9002f2	0.07031812
21	0xbd03d556	-0.032185875
22	0x3d434ef0	0.047682703
23	0xbd90e57f	-0.07075023
24	0x3c7b6f70	0.015346393
25	0xb8549800	-5.06863e-05
26	0x3cbf5fd8	0.023361132
27	0xbce03e7c	-0.027373545
28	0x3dc744a4	0.09729889
29	0xbdc34cf8	-0.09536165
30	0xbd44f2ee	-0.04808324
31	0xbd8c9574	-0.068644434
32	0xbcfe9aac	-0.031079613
33	0x3dc9f902	0.098619476
34	0x3d573264	0.05253829
35	0x3de0238e	0.109442815
36	0x3d1fd944	0.03902556
37	0x3ddd9376	0.108191416
38	0x3da9a782	0.08283903
39	0x3d567c08	0.05236438
40	0xbcc1eba4	-0.023671933
41	0x3dc79838	0.0974583
42	0xbd8a8d90	-0.06765282
43	0xbdd6f693	-0.10496249
44	0x3d417510	0.04723078
45	0x3bc6ebe0	0.006070599
46	0x3cc65960	0.02421254
47	0x3d816e8e	0.06319915
48	0x3da34dd0	0.07973826
49	0xbd18bc4e	-0.037288956
50	0x3d9687b2	0.073501006
51	0x3d0bf44c	0.034168527
52	0xbd65abf8	-0.056072205
53	0xbdceab8a	-0.10091312
54	0xbdbea8ef	-0.09309565
55	0xbc1f8800	-0.009737015
56	0x3cd29488	0.02570559
57	0xbd3ad5b0	-0.045613945
58	0xbab795c0	-0.0014006421
59	0x3dc387ae	0.09547363
60	0x3dde6f02	0.10861017
61	0x3d759864	0.059959784
62	0xbc69e080	-0.014274716
63	0x3d083ddc	0.03326212
64	0x3c93ea10	0.018055946
65	0x3db3bb6a	0.08775981
66	0xbdae48ec	-0.085100025
67	0xbd09b230	-0.0336172
68	0x3caf1258	0.021371052
69	0xbd8a64c0	-0.06757498
70	0x3d3da9e4	0.0463046
71	0x3ddd3ecc	0.10802993
72	0xbd9f39ab	-0.07774671
73	0x3dad8216	0.084720775
74	0xbd1644c8	-0.03668669
75	0x3da22f20	0.07919145
76	0x3d87c4ac	0.06629309
77	0x3c9a6ed0	0.018851668
78	0x3d5a12d4	0.053240612
79	0x3d8c66ea	0.06855567
80	0x3e162617	0.14662968
81	0x3e05dc3a	0.13072291
82	0x3d97bb33	0.07408752
83	0x3d8479e2	0.0646856
84	0xbdcbdf34	-0.09954682
85	0x3b3d64b9	0.0028899147
86	0x3c436eb9	0.011928254
87	0x3dc472ed	0.09592233
88	0x3dfbe530	0.122995734
89	0xbd36efbe	-0.04466223
90	0x3d92942a	0.07157166
91	0xbc995199	-0.018715667
92	0xbc28ab12	-0.010294693
93	0x3dd2a1fb	0.102848016
94	0xbc8af787	-0.016963733
95	0x3d6109a1	0.054940823
96	0x3cfca0eb	0.03083845
97	0xbc94cbdd	-0.018163616
98	0x3cf3facc	0.029782675
99	0x3d974287	0.07385736
100	0xbd14e0d2	-0.036347218
101	0xbbc6c3b7	-0.0060658115
102	0x3d9dccf9	0.07705111
103	0x3c2d2686	0.010568267
104	0x3de0b48d	0.10971937
105	0xbdbded5e	-0.0927379
106	0x3dbdc63c	0.09266326
107	0xbcab4ca8	-0.020910576
108	0xbc30d814	-0.010793705
109	0x3c715de3	0.014731857
110	0x3c964e5b	0.01834791
111	0xbd73b83d	-0.059501875
112	0x3cb06736	0.02153359
113	0xbd37259a	-0.044713594
114	0xbcdbc4e9	-0.026827293
115	0xbdffbb3c	-0.12486884
116	0xbdd846be	-0.10560368
117	0xbd836bd0	-0.06417048
118	0x3acfd019	0.0015854865
119	0x3a48d41b	0.0007661001
120	0x3e06267e	0.13100621
121	0x3dd19f52	0.10235466
122	0xbd813cec	-0.06310448
123	0xbc925dc4	-0.017866977
124	0x3dd74ea2	0.10513045
125	0x3c9cc67b	0.019137612
126	0xbd9868af	-0.07441842
127	0x3d2f048a	0.04272894
128	0xbdccf111	-0.10006917
129	0x3d755cf8	0.059903115
130	0xbd54fe47	-0.05200031
131	0x3d8d240b	0.0689164
132	0x3c47c770	0.012193546
133	0x3e0acff6	0.13555893
134	0x3dca84d0	0.09888613
135	0x3dce8e8c	0.100857824
136	0xbcc95ef9	-0.02458142
137	0xbdafd4ff	-0.08585548
138	0x3a7a5e27	0.0009550773
139	0xbc8cfd09	-0.0172105
140	0xbda2a035	-0.07940713
141	0x3c43c463	0.011948678
142	0xbd57612b	-0.0525829
143	0xbcac305b	-0.021019151
144	0xbd6d3250	-0.05790931
145	0xbdb9b296	-0.09067266
146	0xbe085d38	-0.1331681
147	0xbd9f27e3	-0.0777128
148	0xbd9b3c45	-0.07579855
149	0xbd9fca9b	-0.07802316
150	0xbce17b20	-0.02752453
151	0xbcf1d880	-0.02952218
152	0xbdfe26e7	-0.12409764
153	0xbda92a26	-0.08259992
154	0xbde18cd9	-0.11013193
155	0x3dcfe670	0.10151374
156	0x3cc15161	0.023598375
157	0xbcc5bd87	-0.024138225
158	0x3d74f984	0.05980827
159	0xbdd1d406	-0.102455184
160	0xbd2ef3f7	-0.04271313
161	0x3d5e1c1f	0.054226037
162	0x3c87df63	0.016586011
163	0xbcba110c	-0.022713207
164	0x3d2a6e8e	0.04160934
165	0x3d821323	0.06351306
166	0xbdd31e4d	-0.10308514
167	0x3d3ddd01	0.046353344
168	0x3dea2345	0.114325084
169	0x3d83810a	0.064210966
170	0x3de903a8	0.113776505
171	0xbc0d19e5	-0.008612131
172	0x3d553fe2	0.052062877
173	0x3dd86484	0.10566047
174	0xbd9c0c72	-0.07619561
175	0x3ca3dc4a	0.020002503
176	0xbd8bbfd6	-0.06823699
177	0x3dbcd7ff	0.092208855
178	0x3c66e20c	0.01409198
179	0xbcb3f869	-0.021969037
180	0xbc6348c1	-0.013872326
181	0xbc9c45fe	-0.019076344
182	0xbd48a03c	-0.048980936
183	0xbd8e03c4	-0.06934312
184	0xbcbf4d3b	-0.023352256
185	0xbd360d53	-0.0444463
186	0xbd8e890b	-0.069597326
187	0x3c8b662e	0.017016497
188	0xbcab1e9f	-0.020888625
189	0x3da0f5f9	0.078594156
190	0x3c50e6d8	0.01275035
191	0x3d04e54d	0.03244524
192	0x3d099350	0.033587754
193	0xbdc90b81	-0.09816647
194	0xbd4c0356	-0.04980787
195	0x3dab6ad8	0.08369988
196	0x3ce540c3	0.027984982
197	0xbdb6d9c7	-0.089282565
198	0x3da30b68	0.0796116
199	0x3b51422c	0.003193031
200	0xbda31396	-0.0796272
201	0x3d7bbda5	0.061460156
202	0xbb356a14	-0.0027681636
203	0x3d167eaf	0.03674191
204	0x3d7b8277	0.061403718
205	0xbd400eec	-0.04688923
206	0x3d62441c	0.055240735
207	0x3bba3850	0.0056829825
208	0xbd1367b4	-0.03598757
209	0x3d8d8244	0.06909612
210	0x3daf90d9	0.085725494
211	0x3d980519	0.07422847
212	0xbd881d6b	-0.06646236
213	0x3cf63356	0.030053776
214	0x3cac2377	0.021013005
215	0x3d90c0e9	0.07068045
216	0xbcf392de	-0.029733118
217	0xbdd30e09	-0.10305411
218	0xbd03f37b	-0.032214623
219	0x3d0479ec	0.032342836
220	0x3d1cb120	0.038254857
221	0xbddc615f	-0.107607596
222	0xbca26355	-0.019822756
223	0xbd80b3fa	-0.06284328
224	0xbdf374e3	-0.11887529
225	0xbd83b7fa	-0.06431575
226	0x3cad9e8b	0.021193763
227	0x3d2b473d	0.041815985
228	0x3df2e8b7	0.11860793
229	0x3c369acd	0.011145306
230	0x3dd7c6a3	0.10535934
231	0xbdc838e7	-0.09776478
232	0x3da040f6	0.0782489
233	0x3d43c4bb	0.04779504
234	0x3d8ad352	0.067785874
235	0xbd8babe1	-0.06819893
236	0xbdd74678	-0.10511488
237	0x3d611f72	0.05496163
238	0x3dc8a59a	0.09797211
239	0xbbc1c773	-0.005913669
240	0x3ba391b2	0.0049917335
241	0x3badb02f	0.0053005437
242	0x3d989a87	0.07451349
243	0x3db859bc	0.090014905
244	0xbdcd0c98	-0.10012168
245	0x3dd6c6ad	0.10487113
246	0x3cc3430e	0.023835685
247	0x3dab8594	0.083750874
248	0xbd2eb262	-0.042650588
249	0x3d372e2e	0.044721775
250	0xbdc27b66	-0.09496193
251	0xbd6569aa	-0.056008972
252	0xbdc0ab4e	-0.09407674
253	0x3da671e2	0.0812719
254	0xbd2af857	-0.04174074
255	0xbdcc4339	-0.09973759

fc1.bias f4 [40]
0	0xbab97f80	-0.0014152378
1	0xbd075e00	-0.03304863
2	0xbd41963d	-0.04726242
3	0xbc7718e3	-0.015081617
4	0xbd0097b3	-0.03139467
5	0x3df90b6f	0.12160384
6	0xbc53020c	-0.012878906
7	0x3d068b70	0.03284782
8	0x3d389728	0.04506603
9	0xbda41bc6	-0.0801311
10	0x3df1b170	0.11801422
11	0xbda8dda1	-0.08245397
12	0x3b964226	0.004585522
13	0x3cb1b615	0.021693269
14	0xbddc909f	-0.10769772
15	0x3dc22f14	0.09481636
16	0x3df0b7aa	0.11753781
17	0x3d9165d9	0.07099504
18	0xbd29ec74	-0.041485265
19	0xbd718f08	-0.058974296
20	0x3ded3018	0.11581439
21	0xbcd93d1b	-0.026518395
22	0x3dfdfe34	0.12402001
23	0xbd201418	-0.039081663
24	0xbd9ac08e	-0.07556258
25	0x3c03b779	0.008039349
26	0xbcbebb9b	-0.023282817
27	0x3d481b8a	0.04885439
28	0x3d7a216b	0.061067026
29	0x3d6b4415	0.057437975
30	0x3d55e4ae	0.05222004
31	0xbd8a20a9	-0.06744511
32	0xbc737aa1	-0.01486078
33	0xbda4f973	-0.08055391
34	0x3d6ded07	0.058087375
35	0x3e0ab639	0.13546075
36	0x3de3a01f	0.11114525
37	0xbdec4f77	-0.11538594
38	0x3d50dcda	0.05099187
39	0xbdb98d17	-0.09060114

fc2.weight f4 [20, 40]
0	0x3b816360	0.003948614
1	0x3e7478f6	0.23874268
2	0x3c3f43bf	0.011673867
3	0x3d453cfd	0.048153866
4	0xbde30b5c	-0.11086151
5	0xbd10391b	-0.03521071
6	0xbe0b8b6d	-0.13627405
7	0x3d405182	0.046952732
8	0xbd80b5a1	-0.06284643
9	0x3e0a9b5b	0.13535826
10	0xbdb2df15	-0.08733956
11	0xbbebe3c0	-0.007198781
12	0xbe5a8bb2	-0.21342352
13	0xbcbd9fe7	-0.023147536
14	0x3bf30a63	0.0074170097
15	0x3dda2e33	0.10653343
16	0x3e84aa2b	0.25911078
17	0x3e5abd8a	0.21361366
18	0x3d1e982a	0.038719334
19	0x3dc8f6c8	0.09812695
20	0xbd5da1eb	-0.054109495
21	0xbce0a929	-0.027424412
22	0x3e00c584	0.12575346
23	0xbe11e643	-0.14247994
24	0xbcd92948	-0.026508942
25	0x3da9204f	0.082581155
26	0x3c91220e	0.017716434
27	0xbe28e85f	-0.16494893
28	0xbdbc9c4f	-0.09209501
29	0x3cf0eb29	0.029409008
30	0xbde78e63	-0.11306455
31	0x3c86f658	0.016474888
32	0x3e4cb0d1	0.19989325
33	0xbe1f07b0	-0.15530276
34	0x3e09aed2	0.13445595
35	0xbdafd2cb	-0.085851274
36	0x3e160a0a	0.14652267
37	0x3e64506b	0.22296302
38	0xbc8df03a	-0.017326463
39	0x3c33aa84	0.010965947
40	0x3c8a3cf0	0.01687476
41	0x3e0844ff	0.1330757
42	0x3dba6a20	0.09102273
43	0xbe030e01	-0.12798311
44	0x3de35003	0.110992454
45	0x3dc8cdf8	0.098049104
46	0xbdeb34e8	-0.114847004
47	0xbe0fe342	-0.14051536
48	0x3dbba420	0.09162164
49	0x3d612d61	0.054974917
50	0x3e0d9c61	0.13829185
51	0x3dd677c2	0.10472061
52	0xbe3f23e4	-0.18666035
53	0x3e55ddd8	0.20885408
54	0x3dbde177	0.0927152
55	0x3daf874b	0.08570727
56	0xbc674eb0	-0.014117882
57	0x3d4f21b8	0.050569266
58	0xbd23172c	-0.03981702
59	0xbdba4137	-0.0909447
60	0x3e31b691	0.173548
61	0xbd42b2a2	-0.04753364
62	0xbe0ac1c8	-0.13550484
63	0x3dd3fad1	0.10350574
64	0xbde32158	-0.11090344
65	0xbc371bd6	-0.01117607
66	0x3e1012e5	0.14069708
67	0xbd954f4e	-0.07290517
68	0xbddcbf26	-0.10778646
69	0x3e0174ab	0.12642162
70	0x3e027265	0.1273895
71	0xbe224e55	-0.15850194
72	0xbdf0feb5	-0.117673315
73	0xbce07c6b	-0.027403077
74	0x3d32a85f	0.043617602
75	0x3de91178	0.11380285
76	0x3e245847	0.160493
77	0xbd8546ad	-0.06507621
78	0xbd77b91b	-0.060479265
79	0xbe084773	-0.13308506
80	0xbe0e0f82	-0.13873103
81	0x3d9a1797	0.07524031
82	0x3d8b5a96	0.06804387
83	0xbdb2165b	-0.0869567
84	0xbdb5f6ef	-0.088849895
85	0x3e16c326	0.1472288
86	0xbe1c6a50	-0.1527493
87	0xbe1f2d99	-0.15544738
88	0x3dc9fb76	0.098624155
89	0xbd45f2da	-0.048327304
90	0x3de77738	0.11302036
91	0xbe004366	-0.1252571
92	0x3e1be433	0.1522377
93	0x3e14adde	0.1451945
94	0x3deb4402	0.11487581
95	0xbd88872f	-0.06666409
96	0x3e13d878	0.14438045
97	0x3da14639	0.07874722
98	0x3d0339b0	0.032037437
99	0x3d2f68be	0.0428245
100	0x3da94414	0.08264938
101	0x3d3d9315	0.046282846
102	0x3cf38626	0.029727053
103	0xbd6f38e3	-0.05840386
104	0xbe0a3bc4	-0.13499361
105	0x3d5ce6ff	0.053931233
106	0xbd7a711a	-0.06114302
107	0x3d617494	0.05504282
108	0x3e1389f3	0.14408092
109	0xbe16113b	-0.1465501
110	0x3d4d5ae7	0.05013552
111	0xbdb1721d	-0.086643435
112	0xbde961c4	-0.113956004
113	0x3e26693b	0.1625108
114	0xbca73b94	-0.020414151
115	0x3ddeb987	0.1087523
116	0x3cd84f17	0.0264049
117	0xbdb4a049	-0.088196345
118	0x3e05e102	0.13074115
119	0xbd607db7	-0.05480739
120	0x3dfafad2	0.122548714
121	0x3e08eb09	0.13370909
122	0xbd1f9f1e	-0.038970105
123	0xbd29adce	-0.04142552
124	0xbd6dcbb8	-0.05805561
125	0xbe076f9b	-0.13226168
126	0x3dce17f6	0.10063164
127	0x3c0d4b5e	0.008623926
128	0xbdcaf1b4	-0.099093825
129	0x3daf9f4a	0.08575304
130	0x3b245005	0.002507211
131	0xbb0b1bc0	-0.0021226257
132	0x3e0c359e	0.13692328
133	0xbdfec254	-0.12439409
134	0x3de4ac31	0.111656554
135	0xbcdfa23d	-0.02729904
136	0xbcba9860	-0.022777736
137	0xbe05434f	-0.13013957
138	0xbd7c747e	-0.061634533
139	0x3d73d8f4	0.059533074
140	0x3e031639	0.12801446
141	0xbd03c910	-0.03217417
142	0x3df1f09d	0.118134715
143	0x3d6de398	0.05807838
144	0xbc3097a0	-0.010778338
145	0xbd8f8f5c	-0.070097655
146	0xbe10708d	-0.14105435
147	0xbde75f37	-0.11297458
148	0x3dcbfbce	0.09960137
149	0x3d9b830a	0.07593353
150	0x3be3ac40	0.006948024
151	0x3e059a87	0.13047229
152	0x3c4cce51	0.012500362
153	0xbe013b72	-0.12620333
154	0x3cc297f5	0.0237541
155	0x3debb41d	0.11508963
156	0xbd1e16a4	-0.03859581
157	0x3ddfbfd3	0.109252594
158	0x3cecbee4	0.028899617
159	0xbdd25396	-0.10269849
160	0xbdc53d8f	-0.09630882
161	0xbd455207	-0.04817393
162	0xbe00a5dd	-0.12563272
163	0x3da7c722	0.081922784
164	0x3ac2c9be	0.0014861149
165	0x3d479284	0.048723713
166	0xbda90d66	-0.08254509
167	0xbe051f58	-0.13000238
168	0x3dcd199e	0.10014652
169	0xbdb8feff	-0.09033012
170	0xbda54704	-0.08070186
171	0xbca07ec0	-0.01959169
172	0x3d8cde42	0.0687833
173	0x3e304cbc	0.17216772
174	0xbe002f1b	-0.1251797
175	0x3dbd75bf	0.09250974
176	0xbd20c012	-0.039245673
177	0xbc92dc00	-0.01792717
178	0xbe1a7620	-0.15084124
179	0xbe165e81	-0.14684488
180	0xbdfcdff7	-0.123474054
181	0xbd972f8f	-0.07382118
182	0x3da4a0cc	0.08038482
183	0xbe0e1cdb	-0.13878195
184	0x3e05dba3	0.13072066
185	0xbd287089	-0.041122947
186	0xbcc20688	-0.023684755
187	0x3cc70ceb	0.024298152
188	0xbd6a7dd5	-0.05724891
189	0x3dd80b35	0.105490126
190	0xbb9e4711	-0.004830249
191	0xbc6dedaa	-0.014521996
192	0x3e255248	0.16144669
193	0xbcd0bee2	-0.025481645
194	0x3de976c5	0.113996066
195	0x3d0fc5fc	0.035100922
196	0x3d103552	0.0352071
197	0x3e3a1230	0.18171
198	0xbdc7cc2c	-0.097557396
199	0x3e02ea5d	0.12784715
200	0xbe070389	-0.13184942
201	0xbe1715af	-0.14754365
202	0xbc2fc639	-0.010728412
203	0xbd9bfe55	-0.07616869
204	0x3dba6d54	0.09102884
205	0xbdae232a	-0.08502801
206	0xbe1e0ee9	-0.15435375
207	0x3d1ae90c	0.037819907
208	0x3d35ae94	0.044355944
209	0x3da38916	0.079851314
210	0xbd0a14aa	-0.033711113
211	0x3d73c3ac	0.05951278
212	0xbc56b8ae	-0.0131055545
213	0xbda91ddb	-0.082576476
214	0x3d8f0acb	0.069844805
215	0xbcf344b3	-0.029695844
216	0x3dace2bf	0.08441686
217	0xbcebabb2	-0.028768394
218	0x3e1f5b4a	0.15562168
219	0x3df1af5b	0.118010245
220	0x3bd06e46	0.006360802
221	0xbcb35011	-0.021888765
222	0x3cbba02c	0.022903524
223	0xbdf904bd	-0.12159107
224	0x3d6d3538	0.05791208
225	0x3dc00f92	0.0937797
226	0xbd30c880	-0.04315996
227	0x3e18fc62	0.14940026
228	0x3dac7527	0.084207825
229	0xbe15c535	-0.1462601
230	0xbd5c9001	-0.05384827
231	0x3d2ea0a8	0.042633682
232	0x3d7f0c8b	0.06226782
233	0x3e36e7bf	0.17861842
234	0xbd48b273	-0.048998307
235	0x3de606cd	0.11231766
236	0x3c6d8c67	0.014498807
237	0xbdb6ad88	-0.08919817
238	0x3e3cc77a	0.1843547
239	0x3de13337	0.109960966
240	0xbd7ef342	-0.062243707
241	0x3e124eac	0.14287823
242	0x3dd66012	0.10467543
243	0xbbbe1b12	-0.005801567
244	0x3e1396d0	0.14412999
245	0x3d94ae6d	0.072598316
246	0xbd2ae7d4	-0.041724995
247	0x3cc67722	0.024226729
248	0x3d42d0c9	0.047562394
249	0xbd65be96	-0.05608996
250	0x3e29c9a6	0.16580829
251	0x3d151f18	0.036406606
252	0xbd76fb97	-0.06029853
253	0x3dce29dd	0.100665785
254	0x3d613fc4	0.054992452
255	0x3e393ee9	0.18090405

fc2.bias f4 [20]
0	0xbcadfc78	-0.02123855
1	0xbdb2244b	-0.086983286
2	0x3ccf7044	0.025322087
3	0xbd38b4e8	-0.0450944
4	0xbd9dc8db	-0.07704326
5	0xbde0aedc	-0.10970852
6	0x3e5bd32f	0.21467279
7	0xbd6afca4	-0.057369843
8	0x3e7a5eb2	0.24450186
9	0x3e77762f	0.24166177
10	0xbd9399e3	-0.07207086
11	0x3dad1485	0.084511794
12	0xbe1161ab	-0.14197414
13	0xbcd55bb8	-0.026044711
14	0xbbfa02a5	-0.00762971
15	0xbd2f9ded	-0.04287522
16	0x3d3bbba0	0.04583323
17	0xbcd48e48	-0.025946751
18	0x3c53af07	0.012920148
19	0xbd60c870	-0.054878652

fc3.weight f4 [10, 20]
0	0x3e8132c1	0.25234035
1	0x3e0fd9e7	0.14047967
2	0x3e66b410	0.22529626
3	0x3df86843	0.12129261
4	0x3dcca2cf	0.09991991
5	0xbe9501ba	-0.2910288
6	0x3ecb49fc	0.39704883
7	0xbe5412e8	-0.20710337
8	0xbecb3dbf	-0.39695546
9	0xbe258cec	-0.16167039
10	0x3e5fa275	0.21839316
11	0x3e497318	0.19672811
12	0xbe730775	-0.23733313
13	0xbd27274c	-0.04080896
14	0xbe811aff	-0.2521591
15	0xbd98b691	-0.07456697
16	0x3e2e24c2	0.1700621
17	0xbd60ab97	-0.05485114
18	0xbd87df4f	-0.066343896
19	0xbe1e9236	-0.15485463
20	0xbeaa8b48	-0.33309388
21	0xbe7cdc70	-0.24693465
22	0x3de0858a	0.109629706
23	0x3dc4e984	0.09614852
24	0xbdd3c8e2	-0.1034105
25	0x3c1f5574	0.009724963
26	0x3e3899aa	0.18027368
27	0x3deb3664	0.114849836
28	0x3f03a83a	0.5142857
29	0x3e0a9218	0.13532293
30	0x3e2943d4	0.1652978
31	0xbdd16008	-0.10223395
32	0xbe1bd0c9	-0.15216364
33	0x3da28500	0.07935524
34	0x3e326d1c	0.17424434
35	0xbe1d628d	-0.15369625
36	0x3e72dd2b	0.23717181
37	0xbd06383a	-0.032768466
38	0x3e0bd77e	0.13656422
39	0x3d9aa7c0	0.07551527
40	0x3eac3128	0.33631253
41	0xbd70f572	-0.058827825
42	0xbd36c6bb	-0.044623118
43	0xbd47b66e	-0.048757963
44	0x3db0ba6c	0.08629307
45	0xbd2492a0	-0.040178895
46	0x3e6780bd	0.22607704
47	0xbdae19b6	-0.08500998
48	0x3dbbd9e6	0.0917242
49	0x3e4ea478	0.20179927
50	0x3c2ac629	0.010423222
51	0xbe1103c2	-0.1416159
52	0xbe622a60	-0.22086477
53	0x3e3e6546	0.1859332
54	0x3e680d89	0.22661413
55	0xbd99b924	-0.07506016
56	0x3d610566	0.05493679
57	0xbdf485f9	-0.11939616
58	0x3e9a01db	0.3007954
59	0x3d9e8370	0.077399135
60	0x3df06b90	0.11739266
61	0xbe0752b9	-0.1321515
62	0x3e4ea6fa	0.20180884
63	0x3e640548	0.2226764
64	0xbddc39c6	-0.10753207
65	0x3e48ef3e	0.19622514
66	0x3e960e2e	0.29307693
67	0x3c292640	0.010324061
68	0x3c8b0f22	0.01697499
69	0x3e058e70	0.13042617
70	0xbdbe4214	-0.09289947
71	0x3e3323d3	0.17494135
72	0x3e2410c1	0.16022016
73	0xbd944faa	-0.07241757
74	0xbde5a439	-0.112129636
75	0xbe55d108	-0.2088052
76	0xbd991889	-0.07475383
77	0xbd934549	-0.071909495
78	0xbdb01971	-0.085986026
79	0x3e4a2f96	0.19744715
80	0xbd7e0db6	-0.062024795
81	0x3dce1a9b	0.10063668
82	0x3d8fb70e	0.07017337
83	0x3d315c64	0.043301
84	0xbcbc41b1	-0.022980543
85	0xbe3ddd31	-0.18541409
86	0xbe73bc7d	-0.23802371
87	0x3e5b4bf8	0.21415699
88	0xbd812199	-0.06305236
89	0x3d4770db	0.04869161
90	0xbda0aa66	-0.07845001
91	0xbcda3fd6	-0.026641767
92	0xbdbd638b	-0.09247502
93	0x3e2bfb76	0.16795143
94	0x3d33ea5a	0.043924667
95	0x3dc290b3	0.095002554
96	0x3d6b78ed	0.05748837
97	0x3c7f9b7a	0.015601033
98	0xbe7eae26	-0.2487112
99	0x3e572954	0.21011859
100	0x3d8f3180	0.06991863
101	0xbd806b54	-0.06270471
102	0xbe543deb	-0.20726745
103	0xbc91f117	-0.017815156
104	0xbe5c40dc	-0.21509117
105	0x3e3648ac	0.1780116
106	0x3db398bc	0.08769366
107	0xbd0765bc	-0.033056006
108	0xbde6bfb9	-0.11267037
109	0xbe8b5b4a	-0.27218086
110	0x3dcd87e8	0.10035688
111	0xbe2ec626	-0.17067775
112	0xbd7c8f55	-0.06166013
113	0x3d4e5fd8	0.050384372
114	0xbe677e91	-0.22606875
115	0xbc522e5e	-0.012828438
116	0x3e317999	0.17331542
117	0xbe1d3a68	-0.15354311
118	0x3c865cbc	0.016401641
119	0xbdc620c2	-0.09674217
120	0xbbd51572	-0.0065028006
121	0xbe43478a	-0.19070259
122	0xbe8155cc	-0.2526077
123	0xba6fa09e	-0.000914106
124	0x3dad5ce5	0.08464984
125	0xbd91e4c0	-0.07123709
126	0x3db9946e	0.09061514
127	0x3db2c998	0.08729857
128	0xbddbb96a	-0.10728724
129	0xbe8940b0	-0.26807165
130	0xbce718e0	-0.028210104
131	0xbd7a0534	-0.06104012
132	0xbd87a10f	-0.06622516
133	0xbe361f26	-0.1778532
134	0x3dbcd901	0.09221078
135	0xbc6b3549	-0.014355966
136	0x3dc8d9a2	0.09807135
137	0x3d5ec77a	0.054389454
138	0xbdd682fb	-0.10474201
139	0x3d4fbdd8	0.05071816
140	0x3d3a0c95	0.045422155
141	0x3de17483	0.11008551
142	0x3d935f3d	0.071959
143	0x3e2e9884	0.17050368
144	0x3dd699ec	0.10478577
145	0x3e094d9f	0.13408516
146	0xbe4ecd4d	-0.20195504
147	0xbdf908f4	-0.12159911
148	0xbe70b31b	-0.23505823
149	0xbe62c82e	-0.22146675
150	0x3d4850a0	0.048905015
151	0x3df8cb33	0.12148132
152	0xbda1708b	-0.07882794
153	0xbd43f8ac	-0.047844574
154	0xbc2efe8d	-0.010680807
155	0x3e0d9f47	0.1383029
156	0xbe6e1961	-0.23251869
157	0xbe3633a7	-0.17793141
158	0xbe3d4c7e	-0.1848621
159	0xbdad842a	-0.08472474
160	0x3d63e0c0	0.05563426
161	0x3d7a95e7	0.061178114
162	0xbe6b9ad0	-0.23008275
163	0xbd7758ee	-0.060387544
164	0xbdbea46e	-0.09308706
165	0x3d9fd2b4	0.0780386
166	0xbdbeccac	-0.09316382
167	0x3cc78930	0.024357408
168	0xbe6ddf5c	-0.23229736
169	0x3c33cabb	0.010973628
170	0x3e17b914	0.14816695
171	0xbd859c6b	-0.06523975
172	0xbe062e8a	-0.1310369
173	0xbdb5ced2	-0.088773385
174	0x3c9a8586	0.018862497
175	0x3e1c17ae	0.15243408
176	0xbd8f09bc	-0.069842786
177	0xbdbc6ff5	-0.092010416
178	0x3da01499	0.07816429
179	0x3d7325e8	0.059362322
180	0x3dd9eba4	0.10640648
181	0x3e404969	0.18778004
182	0xbd86b6c0	-0.065778255
183	0x3d82467c	0.063611
184	0x3e0517e2	0.12997392
185	0x3e5fe4a2	0.2186456
186	0xbe427a64	-0.18992001
187	0x3e1260d8	0.14294755
188	0x3e00b683	0.12569623
189	0x3dab557c	0.08365914
190	0x3b5b3373	0.0033447414
191	0xbcd51302	-0.02601004
192	0x3e47e588	0.19521153
193	0xbd941b7c	-0.07231805
194	0xbc39e6ed	-0.011346561
195	0xbd6e3f9d	-0.058166135
196	0x3e102de1	0.14080001
197	0x3db7b98a	0.08970936
198	0xbe60411c	-0.21899837
199	0x3d5ae758	0.053443283

fc3.bias f4 [10]
0	0x3efa9636	0.48942727
1	0x3f11b8f3	0.56922835
2	0x3ea9dcd8	0.33176303
3	0x3eb30fc5	0.3497297
4	0xbe4c5365	-0.19953687
5	0xbeeb654f	-0.4597573
6	0xbed76882	-0.4207192
7	0xbed28e0c	-0.41123998
8	0xbe699515	-0.22810777
9	0xbe999bce	-0.30001682
