models/solution_b/solution_b-1650123658.pth (torch, 66525 bytes, 23 tensors)

conv1.weight f4 [5, 1, 5, 5]
000000 73 1d a4 3d bd 6a 6c be 0f d6 42 bd 97 85 1a 3d
       0.080134295 -0.23087592 -0.047567423 0.037725057
000010 d1 4a 10 3e 48 0b 58 be 08 31 82 be cf 5a 30 bd
       0.1409104 -0.21098053 -0.25428033 -0.04305535
000020 5b 93 fd bc 2f f3 98 bc 15 3f b7 be 74 ac 12 3e
       -0.030954054 -0.018670646 -0.35790315 0.14323598
000030 2c c7 d8 bd f5 c8 10 be e0 cc 93 3d 0f 9f 40 be
       -0.10584864 -0.14139159 0.07216811 -0.18810676
000040 3f e1 02 be 21 6e 18 be 5c af 04 be dc 5b 80 3e
       -0.12781237 -0.14885761 -0.1295752 0.25070083
000050 4b 4d 1a bd e2 59 05 bd f7 cf fb bd 2a 8a 2c 3e
       -0.03767137 -0.032556422 -0.122955255 0.1684958
000060 2b 66 11 bd 90 17 a1 3d a4 7c 06 bd a0 9e 18 3e
       -0.035497826 0.07865822 -0.03283371 0.1490426
000070 3c dc 27 3d 73 5a 52 3e 27 c3 29 bc b0 68 67 3c
       0.040981516 0.20542316 -0.010361469 0.014124081
000080 0d 20 86 bd 6a 58 81 bd 0c 04 51 3e ce 0f 93 bc
       -0.06549082 -0.06315692 0.204117 -0.017951872
000090 d2 ef 83 3d e0 d4 2a 3e 7e 67 f4 3d 8d 40 41 3d
       0.064422265 0.16682768 0.11933802 0.0471807
0000a0 32 86 ed 3c a6 39 1e 3e 41 ad 2d 3e 8c e5 41 3e
       0.028994653 0.15451679 0.16960622 0.18935221
0000b0 7a 85 ad 3d c1 87 85 bd f2 59 40 3e 7d 4f 45 3d
       0.08472724 -0.06520034 0.18784311 0.04817151
0000c0 eb d0 d7 bc 84 ff 8a 3e 15 9c 9c bc c5 3b 3a bd
       -0.026344737 0.27148068 -0.019117394 -0.045467157
0000d0 0a 7f 0d 3a 4c e9 de 3b 30 5a 1b 3d c5 3d 78 3d
       0.00053976534 0.0068027135 0.037927806 0.060605783
0000e0 e1 53 83 3d bd ea aa bb 94 d0 da 3d 27 99 50 3e
       0.06412483 -0.0052159713 0.10684314 0.20370923
0000f0 b1 e6 3f 3e d7 70 27 3e b5 ac 04 3e 4e 3f 1a 3e
       0.18740346 0.16351639 0.12956508 0.15063211
000100 98 29 41 3e 2c 41 62 3e db 54 47 3e 62 af b6 bb
       0.18863523 0.22095174 0.19465964 -0.0055751065
000110 78 4f 3d 3e 95 df e8 3d f2 61 09 3c 04 01 7e 3c
       0.18487346 0.1137077 0.008385168 0.015503172
000120 f1 8b 66 bd c9 1d 2d 3e f0 94 4d 3e 37 b1 f9 3d
       -0.056285802 0.16905893 0.20076346 0.12192004
000130 36 ce 4b 3e c9 a5 e7 bd 44 35 ec 3d 24 57 cf bd
       0.19902882 -0.11310918 0.11533597 -0.10124043
000140 2b 31 dc bd ff 8b ba 3d e6 5a 78 3d 62 2c 51 3e
       -0.107515655 0.091087334 0.060633563 0.20427087
000150 3a 11 c9 3d c3 2d b6 3d 3f 7b 26 bc f4 39 97 bc
       0.09817739 0.08895447 -0.01016122 -0.018460251
000160 55 4d 42 3e 7a 5b e7 3d 3f 91 c2 3c bf 9d a0 bb
       0.18974812 0.11296745 0.0237509 -0.0049016173
000170 19 83 07 be 43 a3 4a bd a9 af 87 bd f0 9c 82 be
       -0.13233604 -0.049472105 -0.066253014 -0.2551036
000180 c7 f9 45 bd ab e2 9e bd cf ab 3e be f2 c3 67 be
       -0.04833391 -0.07758077 -0.18620227 -0.22633341
000190 ca 01 8a 3a b9 96 01 be f2 ce cc 3d c6 ea b2 3d
       0.0010529098 -0.12655152 0.10000409 0.08736186
0001a0 c3 9f fe bd 97 e3 55 3e fe c9 1c 3e e1 0c 83 3d
       -0.12432816 0.208876 0.15311429 0.06398941
0001b0 bf a9 a4 bd 05 67 0c 3e 7b ad 10 be 12 ef 85 bd
       -0.08040189 0.13711174 -0.14128678 -0.0653974
0001c0 ec 77 03 be e0 97 4b 3e 8b 0b 25 3d 7b cd 2d 3d
       -0.12838715 0.19882154 0.04029421 0.04243229
0001d0 ad 2a fa 3d c4 b6 cd 3c f8 7c da 3b 2f 2e 0a 3e
       0.12215171 0.025111564 0.0066677295 0.1349418
0001e0 e4 f8 2d bd af 1a c0 bc 6c 9b 5c 3d 03 00 32 be
       -0.04247369 -0.023450224 0.05385916 -0.17382817
0001f0 5d bf 92 bd
       -0.07165406

conv1.bias f4 [5]
000000 2e cf 8e 3e 38 3f cb bd c7 da 2b bd 0d b9 42 be
       0.2789244 -0.099241674 -0.04195669 -0.19015904
000010 f5 d9 14 be
       -0.14536269

conv2.weight f4 [10, 5, 5, 5]
000000 74 3d d2 b5 77 46 60 37 6c f3 41 37 40 58 d5 b7
       -1.5664104e-06 1.3367847e-05 1.15603725e-05 -2.5432673e-05
000010 2c 42 56 b7 2c aa 01 38 45 6b 89 b7 80 40 bf 37
       -1.2770801e-05 3.091448e-05 -1.6381624e-05 2.279901e-05
000020 62 b3 b9 b7 72 7c 96 b7 97 97 72 37 32 c9 72 b7
       -2.213725e-05 -1.7939343e-05 1.4459619e-05 -1.44711685e-05
000030 8e e5 91 37 c6 82 21 b8 45 06 ce b6 74 ca 8d 36
       1.7392242e-05 -3.8507183e-05 -6.1400083e-06 4.225696e-06
000040 05 02 f4 b7 1e be 09 b8 ec 0b 5c b8 fa 3c 4a b8
       -2.9088007e-05 -3.2840406e-05 -5.246319e-05 -4.8217342e-05
000050 d0 27 39 38 c5 81 52 b7 66 4e 87 b7 a2 e4 31 b8
       4.4144515e-05 -1.254719e-05 -1.6129761e-05 -4.241302e-05
000060 f7 1c 3e 35 98 43 18 37 1b 17 90 b6 95 56 42 b7
       7.0822665e-07 9.075644e-06 -4.2942243e-06 -1.158346e-05
000070 8a af 0f b8 12 47 ba 36 6b a7 8f b6 f9 d0 15 37
       -3.425734e-05 5.5515056e-06 -4.281222e-06 8.929747e-06
000080 2b 38 51 37 79 19 9c b7 f3 51 3a b5 31 0c f8 b7
       1.2470448e-05 -1.860851e-05 -6.940965e-07 -2.956958e-05
000090 ea 04 7d b8 0f f4 47 b8 50 3c 00 b8 a8 8c bf 37
       -6.0324477e-05 -4.7672595e-05 -3.057375e-05 2.2834472e-05
0000a0 bc e2 5e 38 1c 08 3a b7 09 f3 25 b8 d7 18 4c b6
       5.3140087e-05 -1.1088352e-05 -3.956541e-05 -3.0412828e-06
0000b0 94 77 c6 b7 68 a3 75 37 8b 4d a7 b7 a6 c6 57 b8
       -2.3659122e-05 1.4641184e-05 -1.994406e-05 -5.1445e-05
0000c0 f8 07 71 b5 d8 c9 ac b7 38 c5 86 b9 94 fe 9b b8
       -8.979109e-07 -2.0597989e-05 -0.0002570541 -7.438395e-05
0000d0 9b 5e 80 b8 53 be 52 b9 a5 97 7d b8 6b 1e a5 38
       -6.121137e-05 -0.00020098062 -6.046113e-05 7.873479e-05
0000e0 08 7c ba 38 1c 96 8e b9 eb f1 18 b9 0e 09 77 38
       8.892274e-05 -0.0002719619 -0.00014585971 5.8897822e-05
0000f0 92 44 c3 b9 19 07 a0 b8 6f b4 d3 b8 92 ba 01 b9
       -0.00037244387 -7.6307166e-05 -0.000100948724 -0.00012371902
000100 e2 48 27 b9 4b 5e 7b b8 23 ce a6 b9 08 ef 93 b7
       -0.00015953512 -5.993088e-05 -0.0003181557 -1.7635073e-05
000110 f1 6f 84 38 8e ef ea b8 55 e4 73 b9 b2 8c dd b9
       6.315101e-05 -0.0001120261 -0.00023259346 -0.0004225723
000120 66 e5 17 39 fc 19 90 b8 c3 a7 4e 37 d1 ac 4e 37
       0.0001448594 -6.871295e-05 1.2317617e-05 1.2318794e-05
000130 b5 cc 65 36 36 ec 58 36 75 20 b8 37 23 e6 3c 36
       3.4242814e-06 3.2324e-06 2.1949623e-05 2.814814e-06
000140 5f 82 32 37 af 4c 24 37 e1 a4 2b 37 45 94 b8 36
       1.0639981e-05 9.793016e-06 1.0230783e-05 5.500888e-06
000150 88 b5 d4 b6 43 5e 63 b7 53 53 81 b7 a5 67 89 b7
       -6.3392254e-06 -1.3552201e-05 -1.54168e-05 -1.6379936e-05
000160 b7 ee c7 35 40 7f a4 37 28 b8 a4 37 b7 67 3e 37
       1.489613e-06 1.9609579e-05 1.9636078e-05 1.13490305e-05
000170 77 ef d4 35 77 54 5c 37 e2 36 1d b7 b4 cf 4b b7
       1.5864924e-06 1.3132688e-05 -9.370708e-06 -1.21481025e-05
000180 fe a4 73 b7 8d 0a c0 b7 9b 0d 73 b7 46 f7 eb 35
       -1.4522344e-05 -2.2893097e-05 -1.4487096e-05 1.758083e-06
000190 34 61 8a 36 d9 99 19 37 b6 d0 43 b6 50 c1 8c 36
       4.1240364e-06 9.155331e-06 -2.917875e-06 4.1948297e-06
0001a0 58 cc 16 37 80 4e 54 37 73 22 9e 36 1c c3 0e b8
       8.988274e-06 1.2654462e-05 4.7127774e-06 -3.4037148e-05
0001b0 51 26 ac 37 c4 0f 2b 37 f4 5c 29 b7 ee 8c c7 b6
       2.052184e-05 1.0196065e-05 -1.0094827e-05 -5.9470685e-06
0001c0 b0 1a e9 b7 d3 ca 2a 36 0e bd 36 36 99 44 05 b8
       -2.7788192e-05 2.5450033e-06 2.7230158e-06 -3.1773558e-05
0001d0 16 27 1d b3 8a 63 e1 b7 20 de e0 36 e8 67 99 b7
       -3.658996e-08 -2.6868442e-05 6.701579e-06 -1.8287406e-05
0001e0 e4 f7 dc 37 66 31 0c b3 f7 d1 57 b7 27 6b a3 b7
       2.6341477e-05 -3.2641218e-08 -1.2863885e-05 -1.948101e-05
0001f0 89 3f c1 36 84 b6 83 bd cf 7f 94 bd 9b 66 83 be
       5.7592447e-06 -0.064312965 -0.0725094 -0.2566422
000200 50 82 88 be ab a4 02 be 02 cd 3e 3d 8b c7 04 3e
       -0.2666192 -0.12758128 0.04658223 0.12966745
000210 3f ed 35 be f0 0d 65 be ac 9d 44 be d7 a3 06 3d
       -0.17766283 -0.22368598 -0.19200772 0.032871094
000220 f1 05 0c 3d a1 97 4d bd 42 51 62 3c 9b 48 3d be
       0.034185354 -0.050193433 0.013813319 -0.18484728
000230 aa bc 6f be 3b 21 a3 3d 24 04 7b 3c fd 4d 5c 3d
       -0.23411813 0.079653226 0.015320811 0.053785313
000240 31 f9 22 be 22 d8 06 be 7f 56 27 3d fa da e2 3d
       -0.15915371 -0.13168386 0.040853973 0.11076923
000250 e6 10 d7 3d b1 91 10 bd 72 90 7a 3d eb d7 1e 3e
       0.1050127 -0.035295192 0.06117291 0.15512054
000260 e5 c7 d8 3d 16 5b c2 3d 47 69 9a 3a 72 d3 0e 3d
       0.10585002 0.094900295 0.0011780643 0.03486962
000270 56 f6 04 3d 0a b9 ac 3c 4f b9 8c 3b 02 54 d6 3d
       0.032461487 0.021084327 0.0042945514 0.10465242
000280 45 96 58 3d e9 10 ee 3c 1a fe 3e bd 39 05 60 bd
       0.052877683 0.029060798 -0.04662905 -0.05469248
000290 5e 05 fb 3d 1e 66 f4 bc 13 94 f9 bd 9c 41 82 bc
       0.12256883 -0.02983385 -0.12186446 -0.015900426
0002a0 69 fb 1f bd 3c 77 a7 3d d0 61 05 3d 3a 9a a6 bd
       -0.039058123 0.08177039 0.032563984 -0.08134885
0002b0 46 9d c9 bd 4d 17 4f bd 70 ab 86 3d 9e b5 f2 3d
       -0.09844451 -0.05055933 0.06575668 0.11851047
0002c0 70 46 2c 3e 80 d6 42 3d ba 04 9e 3d ed d8 3f bb
       0.16823745 0.047567844 0.07715745 -0.0029273585
0002d0 34 9f 74 bd e5 31 63 3c fe 9c a4 3d 19 b1 99 3d
       -0.05972214 0.013866876 0.080377564 0.07504482
0002e0 03 ba d6 3b cd 9c f3 bc c4 66 47 bc 25 0e eb bc
       0.006552936 -0.029737854 -0.012170497 -0.028693268
0002f0 a3 d1 c7 3c 12 47 ee 3d 9d 82 bc bc ab 6a 25 3d
       0.024391955 0.11634649 -0.0230115 0.04038493
000300 4a 64 83 bd 0f fa 63 bd 18 13 1b bd 1b 06 b2 3d
       -0.06415613 -0.055658396 -0.037860006 0.08692571
000310 5f ee 09 3d d6 72 cc bd f6 bb d8 bb bd 14 38 bc
       0.033674594 -0.09982841 -0.0066142036 -0.011235413
000320 00 70 d8 3e 1b 09 99 3e a3 a1 a6 3d 9c 2f e5 bc
       0.4227295 0.2988976 0.081362985 -0.027976803
000330 de 0a 4f 3d fe f7 0b 3d 5f ef 4b 3e 2f ff 89 3e
       0.050547473 0.03417205 0.19915532 0.26952502
000340 72 96 17 3e 8c db 4b 3d 98 8f 94 bd f7 ac d6 bc
       0.14803484 0.049769923 -0.07253951 -0.026205523
000350 84 44 d4 3c 45 58 1c 3d 77 b3 ac 3d 5f 10 17 bd
       0.025911577 0.038170118 0.08432668 -0.036880847
000360 54 d1 9e bd e2 0a 37 be d4 57 87 bd 5b 2c ab ba
       -0.0775477 -0.17875245 -0.06608549 -0.0013059484
000370 21 af a5 3d eb 7b 83 bd 41 a0 80 bd 06 5d d8 bd
       0.08090044 -0.0642012 -0.06280566 -0.10564618
000380 af a1 cf bd d3 13 87 3e 56 50 29 3e 1b 30 f0 3d
       -0.101382606 0.26382312 0.16534552 0.117279254
000390 3c de 72 bc 8d ce fe bc 9d 8a b9 3d 94 42 01 3e
       -0.014823493 -0.03110435 0.090596415 0.12623054
0003a0 e5 b6 71 3d 71 1a bf 3d f4 3d eb 3c c5 a8 38 bd
       0.059012312 0.09331215 0.028716065 -0.045082826
0003b0 a2 f6 2d 3d 72 ad b9 bd 59 c7 8b bd 26 1c a7 3d
       0.042471536 -0.09066285 -0.06825132 0.08159666
0003c0 80 0d a2 bc 80 c5 45 3b 34 6e 1d bc bb ea 11 3d
       -0.019781828 0.0030177534 -0.009608794 0.035624247
0003d0 1d 30 3a 3b f9 c3 4f 3d 89 17 98 bd e9 b7 fe bc
       0.0028410025 0.050724003 -0.07426364 -0.031093555
0003e0 38 6a d8 3b 27 9b b9 3c bc ed 41 be ca a9 d9 bd
       0.006604459 0.02265699 -0.18938345 -0.10628088
0003f0 ad 9e ab bd 61 73 b8 bd 40 38 9c be 7d db 49 be
       -0.083798744 -0.09006382 -0.30511665 -0.19712634

conv2.bias f4 [10]
000000 87 1d 86 b8 3c 3b 31 be 6e 1a 9c bd b6 b2 ff bd
       -6.395118e-05 -0.17307752 -0.076222286 -0.12485258
000010 df a4 a8 bd 9b 17 8d 37 25 55 9f bd 72 5d 9f b9
       -0.08234572 1.6819502e-05 -0.07779912 -0.00030396465
000020 ce 2c f7 bd 3a f2 a7 bd
       -0.12069093 -0.08200498

conv3.weight f4 [20, 10, 3, 3]
000000 02 53 98 b6 43 ec fc 36 8c 43 a5 36 c5 99 a7 b6
       -4.5396164e-06 7.5376897e-06 4.9252467e-06 -4.994889e-06
000010 19 9e 10 36 13 d8 9e 37 38 8f 07 37 a9 75 9a b7
       2.1549697e-06 1.8935685e-05 8.079973e-06 -1.841302e-05
000020 7e 6a 3c 37 34 08 02 3e fc 2c 18 bd f1 70 37 3e
       1.1230468e-05 0.12698442 -0.037152275 0.17914177
000030 24 c6 47 bd 0c 13 c3 be 01 7d 80 3e 21 04 38 3d
       -0.048772946 -0.3810047 0.2509537 0.044925813
000040 39 27 dd bd c1 df a6 be e9 1a 02 bd c6 c5 43 bd
       -0.10798497 -0.32592586 -0.031763945 -0.047796033
000050 cf 86 7c 3e de 31 05 be 3f b9 a2 bd 83 a7 13 3e
       0.246608 -0.13007304 -0.07945489 0.1441937
000060 a1 8f 79 3c 5c 0d b6 bc b7 e7 f1 3d 2c 06 1d bb
       0.015231998 -0.022223167 0.11811774 -0.0023959978
000070 24 f8 82 bc e0 a6 23 3e c1 fb ea bc 35 6f e9 bd
       -0.015987463 0.15981627 -0.028684499 -0.11398164
000080 70 fa 72 3d 0a 51 1d be 81 c7 a0 be ca 02 e4 bc
       0.059320867 -0.15362945 -0.3140221 -0.027833361
000090 46 2b 3a bd 18 1f 1b 3e e2 fb 7f 3e 9c 10 00 be
       -0.045451425 0.1514858 0.2499843 -0.12506336
0000a0 fb dd a4 3d eb 78 21 3d a0 eb 02 be 61 98 0d be
       0.08050152 0.039421957 -0.12785196 -0.13827659
0000b0 b4 28 42 3d b2 0e 12 38 a1 ec 20 38 30 73 6b b7
       0.0474021 3.48228e-05 3.836735e-05 -1.4033911e-05
0000c0 75 fc 8e b7 4e 07 0d 38 b5 db 14 37 70 4b 6b 37
       -1.7045279e-05 3.3623823e-05 8.872642e-06 1.4024656e-05
0000d0 a8 95 aa b7 3e 1a 13 b7 33 d0 e5 bd 1b e3 6a 3e
       -2.0335268e-05 -8.767993e-06 -0.112213515 0.22938196
0000e0 f0 25 68 3c a2 27 b9 3b 21 bc 55 3e 02 8a 4a 3c
       0.014169201 0.0056504766 0.20872547 0.012362005
0000f0 94 48 32 bd e8 d1 b4 be 42 68 15 bd 11 21 5c b7
       -0.043526247 -0.35316396 -0.03647638 -1.3120721e-05
000100 8b 8c 01 b8 00 b0 57 b7 56 af 5a 36 e3 4f 17 37
       -3.0886888e-05 -1.2855977e-05 3.258659e-06 9.018901e-06
000110 b1 59 74 b7 79 51 ee 37 87 80 82 37 4d 1a 59 b6
       -1.4564416e-05 2.840975e-05 1.5557058e-05 -3.2350829e-06
000120 81 7f 1d be b0 b0 ad bd ab 5e 27 3f 16 9e a5 be
       -0.1538067 -0.08480966 0.65378827 -0.32347172
000130 11 96 42 be 33 30 f0 3e 9a 83 65 be eb 75 16 be
       -0.19002558 0.46911773 -0.22413483 -0.1469342
000140 49 a9 bf 3e 5b f3 0d be 5f 5d 8f 3e c4 f6 61 3e
       0.37433842 -0.13862364 0.28000924 0.2206679
000150 d2 0b b5 bd 71 74 80 3e 36 85 33 3d 58 97 20 be
       -0.08840145 0.25088838 0.04382821 -0.15682733
000160 ab b7 44 3e b5 ab 3f 3d 87 cf ee 36 d7 27 c9 35
       0.19210689 0.046794612 7.117112e-06 1.4987262e-06
000170 a4 11 cd 37 53 63 93 36 4f 64 c2 36 77 a0 4d b8
       2.4446119e-05 4.3925043e-06 5.793328e-06 -4.9025253e-05
000180 91 be 04 38 16 41 8c b7 46 af eb 37 b5 01 13 be
       3.164873e-05 -1.6719609e-05 2.8095801e-05 -0.1435612
000190 56 25 9c bd cb 98 fd bc 8a 00 0d be 9c c1 cf bb
       -0.07624309 -0.030956646 -0.13769737 -0.0063402187
0001a0 1e 71 e9 3d 29 a2 a7 bd 09 8e b4 3d 96 ce 97 bd
       0.113985285 -0.081852265 0.088161536 -0.0741245
0001b0 ab ad 15 be 5f 16 71 3c e4 80 91 bd 16 40 f0 bc
       -0.1461703 0.014714806 -0.07104662 -0.029327434
0001c0 19 6f ed 3c eb 95 23 3c 98 15 2b be c2 70 21 bd
       0.02898364 0.009984474 -0.16707456 -0.039414175
0001d0 e4 c3 f3 bd 9b 61 c6 3c 34 2c 80 bd 1f df 0a be
       -0.119025975 0.024216464 -0.06258431 -0.13561676
0001e0 64 b2 0b be 68 b8 bf bd 21 24 bf bd 66 20 c7 bd
       -0.1364227 -0.093613446 -0.09333063 -0.097229764
0001f0 c2 f2 a7 bd c0 8f a0 bb a9 79 07 be cd f5 cd bd
       -0.08200599 -0.004899949 -0.13230003 -0.100566484
000200 9a 19 04 bd 8d 12 45 bd cd b0 d5 bd 0a 9c b5 bb
       -0.032250978 -0.048113395 -0.10434113 -0.005542283
000210 55 23 f6 bd dc 44 7d bd b9 01 eb bd 86 02 a8 37
       -0.12018458 -0.061833248 -0.11474938 2.0028336e-05
000220 5f 7e 41 b7 cc 3c fb b7 ca d7 0e b8 3a a5 b1 36
       -1.15331195e-05 -2.9949842e-05 -3.4056407e-05 5.294246e-06
000230 b7 6c c4 37 66 94 6c 35 79 e5 2a b5 4f 8b 76 b7
       2.3415645e-05 8.81328e-07 -6.366386e-07 -1.4695178e-05
000240 42 9e c7 3d 7b ad 25 bd b1 ab b2 3d a8 d9 8b bd
       0.09746982 -0.040448647 0.08724154 -0.06828624
000250 3e 94 d0 bc 64 80 49 3d 48 01 1b be 6f 22 9a bd
       -0.025461312 0.04919471 -0.15137208 -0.07526099
000260 48 69 85 bd e2 9c ff b7 09 1a 12 38 89 e3 97 37
       -0.065142214 -3.0471423e-05 3.483336e-05 1.8106557e-05
000270 81 71 48 b8 99 bf 11 b8 ca 18 28 b8 c8 e9 30 b8
       -4.7789425e-05 -3.4749133e-05 -4.0077408e-05 -4.2179396e-05
000280 e3 20 9c b8 3d 32 c7 b8 22 83 fe bd fc ce 26 ba
       -7.444785e-05 -9.498417e-05 -0.12427355 -0.00063632405
000290 03 96 91 bd 3f 0e 14 bd a6 a6 01 3d 81 87 7c bb
       -0.071086906 -0.0361464 0.03165307 -0.0038532915
0002a0 4d 08 d2 bd 98 62 42 bd 66 3f 20 be a9 bd ef bd
       -0.102554895 -0.047457308 -0.15649185 -0.11706097
0002b0 10 62 4c 3c c4 61 8f bd 5e e7 0a bc 2f 9e e1 bc
       0.012474552 -0.07001069 -0.008478014 -0.027541248
0002c0 0f 37 1c bc b5 e2 66 bc 31 01 44 3d a9 9a 28 be
       -0.009534611 -0.014092137 0.0478527 -0.16465248
0002d0 27 f3 84 37 0e 03 74 b7 20 ce a1 b7 cb 93 c4 37
       1.5848853e-05 -1.4544245e-05 -1.928868e-05 2.3433842e-05
0002e0 11 ca b0 b7 66 14 0e b8 2f 1b 02 37 16 5e 28 b7
       -2.107493e-05 -3.3874436e-05 7.754933e-06 -1.0035486e-05
0002f0 69 81 29 b7 da 11 47 3e 51 a7 e0 bd ac 1f b4 bc
       -1.0103316e-05 0.19440404 -0.10969413 -0.021987759
000300 43 e2 c6 bc 08 3e 4a bd 78 00 c2 3d 34 a6 00 3e
       -0.024277812 -0.049375564 0.09472746 0.12563401
000310 9c 89 74 3c d4 cb bf be 29 0b 00 3e 05 9e f6 bd
       0.014925387 -0.37460196 0.12504257 -0.120418586
000320 35 21 f0 bc 9e a5 8d 3d cd 0b f8 bd 0e 25 7a 3d
       -0.02931271 0.069163546 -0.12111626 0.061070494
000330 c8 22 23 39 1f ca 1d be c0 dd 6a 3e 18 d0 e9 3c
       0.00015557848 -0.15409134 0.22936153 0.02854161
000340 a8 1c ea bd 56 57 10 3d ab df ad bc d1 46 2d be
       -0.11431247 0.03523954 -0.021224817 -0.16921546
000350 d3 f7 4e 3e 31 d6 1a bd 42 00 92 bd d5 01 1e 3d
       0.20211725 -0.037801925 -0.071289554 0.038575966
000360 36 3d a6 bd f2 e7 41 3a 75 5b d8 3d 59 f8 1c be
       -0.08117144 0.0007396928 0.10564319 -0.15329112
000370 61 76 35 3d ba 4d 77 3e 29 ad ee bd 59 ae d7 3d
       0.044302348 0.24150744 -0.116541214 0.10531301
000380 ea ff 52 3e 5f 10 70 b7 6c 46 50 b7 44 a6 8d 37
       0.20605436 -1.4308926e-05 -1.24141625e-05 1.6885933e-05
000390 5e 60 98 b7 8c 73 05 38 9d f9 49 35 85 d0 9e b7
       -1.8164686e-05 3.1817282e-05 7.524157e-07 -1.8932167e-05
0003a0 00 ec 10 37 9a 12 15 b7 56 c8 13 3d 2a 4a 50 3d
       8.638017e-06 -8.885423e-06 0.036079727 0.05085198
0003b0 94 5e 6e 3d fa bd 20 bd eb 59 f7 3c 59 df c3 bd
       0.058195665 -0.039243676 0.030194243 -0.095640846
0003c0 81 bd 29 bd af 1b fc be cf 92 b7 3e 21 06 2e b6
       -0.04144049 -0.4923987 0.35854194 -2.5931588e-06
0003d0 30 b9 49 b7 a2 cd 6e b7 e8 15 84 b8 05 54 45 36
       -1.2023651e-05 -1.4233783e-05 -6.298331e-05 2.9404193e-06
0003e0 00 3f 3c b8 0d 14 e5 34 5c 95 46 b7 f1 dc 77 37
       -4.4881366e-05 4.2669163e-07 -1.1836495e-05 1.4773789e-05
0003f0 f3 32 5f bd 45 28 2c be 74 54 53 3e 0d 38 ed bd
       -0.05449195 -0.16812237 0.20637685 -0.115829565

conv3.bias f4 [20]
000000 48 82 59 bd b0 e5 06 3e 7a b4 20 be bf e2 e9 3c
       -0.05310276 0.13173556 -0.15693846 0.028550504
000010 06 51 53 bd e9 b9 26 3e 52 fb 15 3e 46 63 11 bb
       -0.05159094 0.16281857 0.14646652 -0.0022184416
000020 84 de 2a 3e 92 85 16 bd 8a dd c8 3d 82 05 0a be
       0.16686445 -0.036748476 0.0980788 -0.13478664
000030 3d 2b 90 3d ba 3c 03 3c 50 51 da bd c2 e2 27 be
       0.07039497 0.008010084 -0.106600404 -0.16395095
000040 93 b4 a4 be 47 9c 49 3d 6d 37 2e be 6f e5 c3 3d
       -0.32169017 0.049221303 -0.17013331 0.09565245

fc1.weight f4 [40, 80]
000000 c5 33 2c 3e 83 6e a1 be d8 8d be 3d ac c0 8b be
       0.16816624 -0.31529626 0.09304398 -0.27295434
000010 2e 82 1f bc d1 c3 ea bd 46 51 df bd 57 db 96 bd
       -0.009735627 -0.1146313 -0.109041736 -0.073660545
000020 81 80 6b 3d bc fd 70 be 53 a4 08 3e ad c2 be bc
       0.057495598 -0.23534292 0.13343935 -0.023286188
000030 f6 cb ae 3c ab d4 ea bd d5 ee db bb 6c 06 86 bd
       0.02133749 -0.114663444 -0.0067118206 -0.065441936
000040 0b 8d 55 bd ef 69 f3 bd 48 9d b3 bb d3 07 84 bd
       -0.052136462 -0.118854396 -0.005481396 -0.06446805
000050 5f be 0e bf 74 72 45 be 47 a3 6a 3d e1 31 ef 3e
       -0.55759233 -0.19281942 0.05728462 0.46717742
000060 e2 2c aa 3c 8d 34 9e bd 70 ab e9 bd 36 da 2b 3d
       0.020773355 -0.07724867 -0.11409652 0.04195615
000070 a2 fb 05 be 9f a3 a2 bc 91 ef 97 bd 20 40 d0 bd
       -0.13084272 -0.019853411 -0.074187405 -0.10168481
000080 ee ef e5 bd 34 3e 9e bc 20 0a ff bd 86 c8 c2 bd
       -0.112274036 -0.01931677 -0.12453103 -0.09510903
000090 22 1c be 3d c9 84 76 3c af e5 f4 3d a9 2e f2 3d
       0.0928271 0.015046307 0.11957871 0.11825306
0000a0 42 69 6c 3a 26 d0 8f 3d 64 87 bc 3c c8 8c 71 3d
       0.000901837 0.07022123 0.023013778 0.05897215
0000b0 f8 5a 51 3d 69 38 09 be b2 c7 fa 3a fb 4f 06 bd
       0.051112145 -0.13400425 0.0019133 -0.03279112
0000c0 15 62 fa bd c9 a2 10 be 56 85 8d 3e 03 96 fa 3d
       -0.12225739 -0.14124598 0.2764079 0.12235644
0000d0 e5 fe 8c bd c7 01 40 3d 7f 1f 79 be 9a ab c6 3c
       -0.06884555 0.046876695 -0.24328421 0.024251748
0000e0 8c 02 d7 3d b1 8b 71 bd 30 c3 10 bc 71 a8 c1 3c
       0.10498533 -0.05897111 -0.008835599 0.02363989
0000f0 5c 13 91 bc cd ca 83 bd e6 09 ee 3d 0f 9b c8 3d
       -0.017709427 -0.064351656 0.11622982 0.097952
000100 c6 ad a2 3d 18 bc a6 bd 85 7c 97 3d d4 84 4c 3e
       0.07943301 -0.08141345 0.07396797 0.19972545
000110 f5 7f 17 3e cc 69 a2 bb a7 67 d7 bd 80 2c 4b 3d
       0.14794905 -0.0049564596 -0.10517817 0.049602985
000120 78 e4 3f b9 6e 79 93 bd 8f f3 ba 3b 91 19 eb 3d
       -0.0001830029 -0.07200895 0.005705304 0.11479486
000130 75 12 4d be 55 9e 9f 3e 2c 32 37 be 67 a0 03 3e
       -0.20026572 0.31175485 -0.17890233 0.12854157
000140 b6 3a 1c b8 58 07 2c b6 c2 c2 08 b8 9f 50 99 b7
       -3.7247977e-05 -2.5634272e-06 -3.260631e-05 -1.8276563e-05
000150 9e 1a 9b 37 dd d8 bb b7 6f 71 4f 39 c7 0c 18 b7
       1.8489834e-05 -2.2393122e-05 0.00019783316 -9.062881e-06
000160 2a 13 27 b6 c3 d2 c2 b5 4f 0e 03 b8 3b ff 27 b7
       -2.4896094e-06 -1.4515466e-06 -3.124616e-05 -1.0013401e-05
000170 9c d3 2a 38 9f f6 43 b8 ac dd 57 b8 ea 24 28 38
       4.0728235e-05 -4.6721307e-05 -5.1466443e-05 4.00887e-05
000180 fa c7 89 b7 5f 38 87 39 bd ad eb 38 b8 54 93 b8
       -1.6424794e-05 0.00025791206 0.000112380345 -7.025286e-05
000190 db e3 4b 37 55 d8 8c b7 47 9c 09 b7 58 b6 1e b7
       1.2152795e-05 -1.6790038e-05 -8.2022225e-06 -9.459989e-06
0001a0 9c d2 dc b6 0f 44 2e b8 ab 6e ac b7 1e b7 bc 36
       -6.581029e-06 -4.1548217e-05 -2.0555532e-05 5.6241543e-06
0001b0 f6 de 3c 38 8f c7 4a b9 90 cc 61 39 50 b6 89 39
       4.503034e-05 -0.00019338563 0.00021533878 0.0002626651
0001c0 ba 58 82 38 e4 09 74 b8 65 0f de 38 9d b6 b0 38
       6.21541e-05 -5.8183345e-05 0.000105886524 8.426348e-05
0001d0 5d d8 86 b7 cb 52 28 b9 aa 88 cc b9 22 dd 00 b9
       -1.6074797e-05 -0.00016052571 -0.00039011735 -0.0001228941
0001e0 89 9b 28 b8 b1 fc 32 39 35 e1 81 39 b4 5f a5 b7
       -4.0199175e-05 0.00017069538 0.0002477259 -1.9714098e-05
0001f0 73 bf b9 38 e9 16 07 b9 75 ae ba 38 b4 78 33 b8
       8.8571476e-05 -0.00012883138 8.901666e-05 -4.278934e-05
000200 f5 24 f4 37 ce 4b c5 36 b8 53 57 37 de 3f a9 37
       2.9104276e-05 5.8798823e-06 1.2834491e-05 2.017611e-05
000210 2f f5 1f 37 d4 a1 36 38 8d 14 bf 38 7d 90 00 39
       9.534225e-06 4.3542896e-05 9.1114176e-05 0.00012260857
000220 c8 b0 75 38 33 cb b7 37 63 b9 90 b7 01 bd 1e b8
       5.8577192e-05 2.1909922e-05 -1.7252465e-05 -3.784616e-05
000230 75 2e ef b7 0b 83 49 b7 3f c8 15 b8 31 eb 21 b7
       -2.8512653e-05 -1.2011044e-05 -3.5710862e-05 -9.651108e-06
000240 7b 74 4b b8 a0 44 b2 b8 2c cd c4 b8 41 98 61 39
       -4.8507452e-05 -8.500484e-05 -9.3842245e-05 0.00021514391
000250 3e a2 8c 38 70 0c cb 37 44 1c a7 38 67 9b 00 38
       6.70594e-05 2.4205277e-05 7.9684454e-05 3.0662308e-05
000260 0d 51 dc b9 f8 00 1a b9 f5 f8 cb b8 45 51 d5 b8
       -0.00042022057 -0.00014686945 -9.726166e-05 -0.00010171769
000270 17 20 8e b7 10 bf 20 37 b4 0e 32 b7 11 e6 1a 38
       -1.6942662e-05 9.581228e-06 -1.061305e-05 3.6930727e-05
000280 54 fe 43 bd e8 06 41 3d 23 29 e6 3c e7 aa 35 3e
       -0.047849968 0.047125727 0.028095787 0.17740975
000290 7d 47 ea 3d 16 1c 53 3e 2d 34 45 3e bd 4b 5c 3d
       0.114394166 0.20616183 0.19258185 0.053783167
0002a0 97 13 fb bd be 21 07 3e 0b 6e 13 be 11 de fe 3c
       -0.12259596 0.13196465 -0.14397447 0.031111749
0002b0 37 81 f6 3c 52 c7 88 bc ec 51 d4 3b ad ce 66 3c
       0.030090911 -0.016696606 0.0064794924 0.014087361
0002c0 bf e5 4b 3e 65 36 08 3e 22 a8 53 3e 6b b5 28 3e
       0.1991186 0.13302 0.20669606 0.16475455
0002d0 16 44 a4 bb 70 26 6f bd f2 3c cb 3d 97 b2 0e bd
       -0.0050129993 -0.058386266 0.09923734 -0.034838285
0002e0 29 1e 7f 3c 38 31 83 3c c1 b2 63 3c 8d 43 f2 3c
       0.015571156 0.01601468 0.013897599 0.029573226
0002f0 f1 e7 74 3e ee e4 72 3d 8f 20 ad 3d 00 10 f3 3d
       0.23916604 0.059300356 0.08453476 0.11868286
000300 14 da 2b 3e 57 aa 94 3d cd 41 6b 3e df 71 09 3e
       0.16782409 0.07259052 0.2297432 0.13422345
000310 25 6c 35 be 23 c0 7e be 3f 69 1b be a5 6b c2 bd
       -0.17717035 -0.24877982 -0.15176867 -0.09493188
000320 67 b2 f8 3d 40 0a c9 3d e7 47 5c 3e 0d cd 86 3d
       0.121434025 0.09816408 0.21511804 0.06582079
000330 e8 cf 86 bd 63 f3 af 3d 10 3c 42 be 05 8d d2 3d
       -0.06582624 0.08591344 -0.18968225 0.102808036
000340 80 21 d4 3c 5c b7 ec 3d 0e 8b 43 bc 6a e0 20 3e
       0.02589488 0.115584105 -0.011935009 0.15710607
000350 b1 5d 81 3d 7a b1 0c be 07 76 44 3e c8 7c 26 be
       0.06316698 -0.13739577 0.19185649 -0.16258538
000360 5e fc 47 be da 99 c3 bd 17 8a 90 bd 5a 14 74 bd
       -0.19529864 -0.09550829 -0.070575885 -0.05958972
000370 3a 2f d1 bd 97 94 89 3d 3d 9f 14 be fc 12 12 3e
       -0.10214086 0.067177944 -0.1451387 0.14265054
000380 17 e4 00 be b9 a1 01 3d fa a6 65 bd 20 15 fa 3d
       -0.1258701 0.03164837 -0.056067444 0.122110605
000390 ed 4a ba bd 51 9e 12 3d 50 30 49 bb f2 10 9c 3c
       -0.09096322 0.035795514 -0.0030698963 0.019051049
0003a0 67 8d a6 bd 16 ae c4 bc 8d e8 01 be dc d4 2e 3d
       -0.08132439 -0.024008792 -0.12686367 0.042683467
0003b0 9c b4 25 3d d8 7f 6b bd bb 6a 3d 3d 80 d3 89 bd
       0.040455446 -0.05749497 0.046244364 -0.067297935
0003c0 3e e3 05 bd 92 ab 62 3c ba 04 fe bc c2 86 44 3d
       -0.03268742 0.013834851 -0.031008113 0.047980078
0003d0 1c 1d cc 3d 57 0b 6b 3d 1e 5c cd 3c 0a d5 82 3d
       0.0996649 0.05738386 0.025068339 0.0638829
0003e0 58 ad 87 3c 1b b4 d3 bd 3d 36 03 3d 78 9a 54 bc
       0.016562149 -0.10337087 0.032034148 -0.012976281
0003f0 2f ae f4 3c 9f db 9d 3b 9f de a5 3c 67 40 a6 bb
       0.029868213 0.0048174406 0.020247756 -0.0050735953

fc1.bias f4 [40]
000000 30 2f 8d bd 91 7c ff b8 8d f5 1b be ab c7 d9 bd
       -0.06893766 -0.0001218255 -0.15230389 -0.10633787
000010 06 e1 c3 38 e9 09 9f 3a 13 96 2a bc 0f 30 52 3d
       9.3402385e-05 0.0012133691 -0.010411757 0.051315363
000020 85 92 fd bd 6d d7 a7 3d 63 79 1a be 31 02 7e bd
       -0.12381462 0.08195386 -0.15085368 -0.06201381
000030 f8 e9 16 be ad 29 27 bd b2 01 51 3e 8e 92 9f 3c
       -0.1473769 -0.04081123 0.20410803 0.019479062
000040 ce 15 25 be 31 0e 64 be d9 6a 41 be b8 80 f1 bb
       -0.16121599 -0.22271039 -0.18888415 -0.007370081
000050 06 ce 1c b8 74 8a ee 3c 15 85 bf bb b2 93 59 3a
       -3.7385173e-05 0.029118754 -0.005844722 0.00082999014
000060 2f 15 c6 bb 40 8c 69 ba 89 65 2e ba 95 ba 61 3d
       -0.0060450057 -0.00089091435 -0.0006652703 0.05510958
000070 7d 1c 8d b9 aa f5 a3 bd c2 00 40 be ae 0b 2e be
       -0.0002691484 -0.08005841 -0.18750289 -0.16996643
000080 f4 7b 1d ba 4b a5 14 bc 15 65 be b9 9f 21 49 bd
       -0.0006007545 -0.009072612 -0.00036314936 -0.04910433
000090 da 17 c8 bd e1 6f 6b 3b 67 51 71 ba 25 49 8a ba
       -0.09770174 0.003592484 -0.00092055503 -0.0010550363

fc2.weight f4 [20, 40]
000000 0e 25 43 bc 1a a0 63 36 29 01 45 38 3d 67 2c 38
       -0.01191069 3.3918827e-06 4.696954e-05 4.1104144e-05
000010 fa 0d 1e b8 62 7a 9d 37 c6 b2 88 37 d6 d0 93 bc
       -3.7683152e-05 1.8772847e-05 1.6295711e-05 -0.018043917
000020 d0 f1 9e b7 88 38 b8 bc d2 c7 11 b7 e4 56 d6 36
       -1.894767e-05 -0.022487894 -8.689198e-06 6.3878124e-06
000030 11 9b 99 b7 56 4b 2b b8 84 2d d9 bc 57 b0 c2 bc
       -1.831123e-05 -4.083974e-05 -0.026510961 -0.023765726
000040 f5 75 5b bc 52 0d 47 b8 13 e4 df 37 49 da 10 b7
       -0.013394822 -4.7457703e-05 2.6689877e-05 -8.633892e-06
000050 db 88 d3 37 7a 2a ed bc bc 03 29 bd 1a 87 19 37
       2.5216888e-05 -0.028950918 -0.041263327 9.150966e-06
000060 9d ba 22 b7 06 de d5 b7 a2 1c ec 35 f7 5c 84 b7
       -9.699402e-06 -2.5494966e-05 1.7591703e-06 -1.5778916e-05
000070 fd 35 17 36 27 e1 0a bd 18 3c a7 b6 8d 90 20 b8
       2.2532179e-06 -0.03390613 -4.9839837e-06 -3.8281596e-05
000080 48 47 09 b7 a3 98 a2 37 59 56 0c 38 f7 0b 9e b7
       -8.182433e-06 1.9382982e-05 3.345902e-05 -1.884064e-05
000090 8d df 71 b7 72 3f a6 b5 3f ec 07 38 03 4b 3e b8
       -1.4416769e-05 -1.2386429e-06 3.240653e-05 -4.536939e-05
0000a0 55 3b 02 be bb f5 f3 b8 fa 1a 7d bd b5 55 3c bd
       -0.12717946 -0.00011632914 -0.061793305 -0.045980174
0000b0 2a 4b ed 38 55 7f 4d bb f1 a3 a4 b8 75 56 1e be
       0.00011315041 -0.0031356413 -7.850666e-05 -0.15462668
0000c0 06 49 09 b8 8d 4b 0a 3d 10 d6 89 bd a0 5e 65 39
       -3.2731354e-05 0.033763457 -0.06730282 0.00021874392
0000d0 c5 4c d8 bd 7c 2c 8b 3d 24 c0 91 3b 12 71 ea 3c
       -0.105615176 0.06795594 0.004447954 0.02861837
0000e0 91 09 9e 3d 93 9d 2e be fd ae 9b 36 c8 a9 e7 ba
       0.077166684 -0.17052297 4.6397313e-06 -0.00176745
0000f0 17 02 c7 b8 90 2e 94 bc d4 10 a5 bc 28 c4 8e 38
       -9.489449e-05 -0.018088609 -0.020149626 6.8076246e-05
000100 eb bf c8 37 95 03 99 b8 12 b4 88 b8 e5 2b 76 bc
       2.3931227e-05 -7.296276e-05 -6.518526e-05 -0.015025114
000110 9c 77 75 38 df c2 bd bc 70 c2 ce bd 5e e7 00 be
       5.8523947e-05 -0.02316421 -0.1009568 -0.1258826
000120 41 17 13 b8 a8 01 0f 38 5e 46 32 37 43 2a 2b b8
       -3.5069188e-05 3.40954e-05 1.062601e-05 -4.0808936e-05
000130 5e 49 38 38 31 6d 19 bc a7 29 2c 39 07 3e a4 38
       4.3937347e-05 -0.009364412 0.00016418715 7.831683e-05
000140 b0 6a 37 be 39 fc 33 b8 4a 82 64 b7 8c 01 f1 b7
       -0.17911792 -4.2911826e-05 -1.3620194e-05 -2.873016e-05
000150 78 4f 0a 39 74 e8 39 37 4c 78 96 b7 1b db 48 be
       0.0001319031 1.10809815e-05 -1.7937411e-05 -0.19614832
000160 d6 a9 89 bd f1 de 3d be 1c 78 a1 b6 0a ac ea b7
       -0.06721847 -0.18542077 -4.8121565e-06 -2.7975086e-05
000170 73 2a 36 b6 ca 92 73 b9 c7 84 0e 3e a7 39 49 be
       -2.7144822e-06 -0.00023228969 0.13917838 -0.19650899
000180 84 b9 44 be 48 77 2e be f7 ae 7d 3c b5 ba 03 38
       -0.19211394 -0.1703769 0.015483609 3.140672e-05
000190 09 d4 ba b9 86 06 46 be cf 6a 47 be 8a 2e 14 b8
       -0.00035634663 -0.19338426 -0.19474338 -3.5329293e-05
0001a0 3d a7 4d b6 9c b8 f2 37 27 88 f7 b7 44 8f bb b7
       -3.0644726e-06 2.8934614e-05 -2.9508095e-05 -2.235885e-05
0001b0 ea ac ea b7 28 4b 48 be de ed 22 b8 5e 3b f7 36
       -2.7975493e-05 -0.1955992 -3.884534e-05 7.368085e-06
0001c0 12 60 48 38 66 15 13 38 68 8f 2c 38 db 30 19 37
       4.777319e-05 3.506746e-05 4.1141553e-05 9.130886e-06
0001d0 db e7 18 3c 97 d3 2d b8 9f 60 36 39 07 e5 a1 b7
       0.009332622 -4.1443473e-05 0.00017392867 -1.9299345e-05
0001e0 c2 46 e0 bd f7 31 00 b6 49 e2 01 b7 ec e9 b1 b5
       -0.10950996 -1.910257e-06 -7.741685e-06 -1.3255608e-06
0001f0 da 26 7e b7 58 0f cd 37 ee cc 30 38 ef af bc bd
       -1.5148626e-05 2.444505e-05 4.2152526e-05 -0.09213244
000200 4d e1 6e 37 8c 67 a7 bd 06 68 a2 36 f3 59 b4 b6
       1.4238362e-05 -0.08174047 4.840086e-06 -5.3748895e-06
000210 92 81 30 36 14 ef fb b7 09 81 91 b8 8e 0b c5 bd
       2.6301464e-06 -3.0032861e-05 -6.9381735e-05 -0.096213445
000220 7b c3 92 bd 4b 6b 41 bd 24 93 53 37 17 d6 33 b8
       -0.07166191 -0.047221463 1.2610839e-05 -4.2876312e-05
000230 7e 74 2a 38 7b b1 ae bd ad 3e e0 bd 17 aa 4b b7
       4.063965e-05 -0.085299455 -0.109494545 -1.2139345e-05
000240 a3 5a 6b b7 49 77 0a 38 16 c8 4e 38 60 79 6d 37
       -1.40281945e-05 3.3012857e-05 4.9300572e-05 1.4154561e-05
000250 a4 2e 7d b6 1b 34 e8 bd c2 bc ea b6 c5 e9 6e b6
       -3.7727086e-06 -0.11338063 -6.9957177e-06 -3.5600835e-06
000260 67 e2 48 b8 61 04 06 37 ac 9b d5 37 ac 92 ee b6
       -4.789457e-05 7.988042e-06 2.5464069e-05 -7.1100276e-06
000270 4e ad 1e 37 bf 5b ea 36 61 89 66 b6 68 2b be b5
       9.4578845e-06 6.984424e-06 -3.4352636e-06 -1.4168736e-06
000280 b7 27 fe 3b df f3 70 b6 43 50 96 b7 48 2b 3f bd
       0.007756199 -3.5904739e-06 -1.7918768e-05 -0.046672136
000290 75 b2 a6 37 3b 2c 14 b5 0a 50 7a b6 c9 b0 3d be
       1.9871843e-05 -5.519866e-07 -3.7299492e-06 -0.1852447
0002a0 60 9e 2c 38 ef 2e dc 3c ee 64 bc bd 87 4e c3 37
       4.1155494e-05 0.026877848 -0.09198938 2.3282379e-05
0002b0 84 fe 60 3c 56 21 66 b7 c2 eb af bd 91 f2 b2 bd
       0.013732556 -1.371683e-05 -0.08589889 -0.08737672
0002c0 59 20 a1 bd 14 c8 da bd cd f6 83 b7 0c 87 e7 37
       -0.07867498 -0.10682693 -1.5731343e-05 2.7600232e-05
0002d0 26 38 8d b7 be dd 31 be 97 96 70 bc a0 ea e0 b5
       -1.6834656e-05 -0.17369744 -0.014684341 -1.6757585e-06
0002e0 49 ac 87 35 de 06 26 37 49 4b 4b 36 3e 17 1b 3c
       1.0108425e-06 9.89597e-06 3.029318e-06 0.009465991
0002f0 fc 21 2d 38 33 c2 86 3c f2 c1 09 b8 f1 d5 22 38
       4.1278065e-05 0.016450023 -3.284397e-05 3.882306e-05
000300 d6 18 9b b7 50 b9 c2 37 5f 95 fe b7 f3 a6 9c 37
       -1.8489005e-05 2.3212895e-05 -3.0348716e-05 1.8674391e-05
000310 11 a8 87 37 88 c4 01 b8 a1 11 3e b8 9e 9d 40 37
       1.6171516e-05 -3.093903e-05 -4.531595e-05 1.148079e-05
000320 f7 6f c6 bd a1 22 3c b8 45 c0 e3 3c 8d f1 0b bd
       -0.09689324 -4.4854944e-05 0.027801642 -0.034165908
000330 a6 b1 c6 36 af f3 20 bb 00 78 3b 38 d4 17 86 bd
       5.921541e-06 -0.002455931 4.4696033e-05 -0.065475136
000340 b8 f7 1f b8 31 fc c3 bb ca 7e c0 bc 17 43 3c 39
       -3.813926e-05 -0.0059809913 -0.023497958 0.0001795407
000350 a2 64 fc 3b 04 79 ed 39 e9 08 e2 3b 21 d4 4a bb
       0.007702426 0.00045294326 0.006898035 -0.0030949193
000360 8d bb 7e bd ca 23 3d bb e9 d9 13 b7 0e 81 d1 b9
       -0.06219058 -0.0028860443 -8.812619e-06 -0.0003995974
000370 45 77 14 b8 35 10 3c bd ee 69 87 bc 57 83 0c 38
       -3.5397028e-05 -0.045913894 -0.016530003 3.350092e-05
000380 7a 55 8a 37 84 d1 a3 b9 91 0e 51 37 ca f3 ca 37
       1.6490685e-05 -0.00031245884 1.2460762e-05 2.41938e-05
000390 89 20 c2 b7 b5 2d 42 3d 6e ad a9 37 66 d2 c4 b7
       -2.3141753e-05 0.04740687 2.022713e-05 -2.3462995e-05
0003a0 ee c8 08 36 3f 07 39 b9 7a 9d 7c b7 86 d2 11 b8
       2.0382536e-06 -0.00017645674 -1.5057036e-05 -3.476676e-05
0003b0 75 bc ac b7 20 48 a3 3b 63 84 e0 b7 ae a2 85 37
       -2.0591755e-05 0.004982963 -2.6764528e-05 1.593059e-05
0003c0 09 e2 0e 3e 4d dc b2 b7 45 7f a9 3d 02 79 a3 3d
       0.13953413 -2.1321839e-05 0.08276228 0.07982065
0003d0 79 da a8 37 9e 2a 93 b7 69 e8 8c ba 03 36 10 3e
       2.0128895e-05 -1.754361e-05 -0.0010750416 0.14083104
0003e0 e5 a2 1d be ec a5 20 bb 8e 30 00 be b3 44 65 bc
       -0.1539417 -0.002451296 -0.12518522 -0.01399343
0003f0 80 6f 56 bd f7 11 bc 3c c8 09 1e be 0f 43 d5 3c
       -0.05235243 0.022957785 -0.15433419 0.026032953

fc2.bias f4 [20]
000000 8b c7 0f ba bb c8 25 3d 8a b8 22 be ef 18 e3 bc
       -0.00054847513 0.040474635 -0.15890709 -0.02772185
000010 82 12 27 be b4 ed c9 bd 81 0c e5 bd 23 23 34 3c
       -0.16315654 -0.098597914 -0.111840256 0.010994705
000020 09 9f c8 be d7 14 09 be 64 62 e4 3b 67 e9 e8 3d
       -0.39183834 -0.13386856 0.006969737 0.11372643
000030 8f ff 87 3d 99 23 c5 bd bb 9e 71 bb cc ae 75 be
       0.06640541 -0.0962593 -0.0036868292 -0.23992461
000040 c7 be a3 bc 5e 5e 89 bd fc f9 7e bb 69 1b 2f be
       -0.01998843 -0.06707452 -0.0038906327 -0.171003

fc3.weight f4 [10, 20]
000000 6f bc a4 36 bc e0 6b be d1 6e 4a 3a 6b bb c2 b6
       4.9095174e-06 -0.23034948 0.00077222014 -5.803469e-06
000010 ef 24 a6 37 ba ad 45 3b e1 2c bf be 73 41 97 bc
       1.980594e-05 0.0030163364 -0.37338927 -0.018463826
000020 9b 37 6f be ca c2 6b 39 91 54 99 bd fa 4e 1c be
       -0.23361056 0.00022483911 -0.07486833 -0.15264502
000030 9c ae 36 be 1d 4d a5 b8 af c5 81 37 e6 88 8f bd
       -0.17840046 -7.8821766e-05 1.5470052e-05 -0.07008533
000040 4e cb a8 b9 03 10 37 b8 50 60 54 38 97 67 82 3c
       -0.0003219493 -4.3645512e-05 5.0634437e-05 0.015918536
000050 40 b4 a2 b7 ca 63 8a bc 06 39 49 3a 07 a1 93 38
       -1.939584e-05 -0.016893286 0.00076760387 7.0395e-05
000060 ff 67 04 b8 03 e3 87 b4 ba c4 1d be cd 04 c9 bd
       -3.1568106e-05 -2.5310882e-07 -0.15407076 -0.09815369
000070 88 eb f4 bd 6c 1d 36 38 fd a0 f7 bd ef 1d 31 be
       -0.119589865 4.3419583e-05 -0.12091253 -0.17296575
000080 36 ea bb b8 04 ba 11 b7 a0 d1 80 38 95 dd 95 ba
       -8.96048e-05 -8.685984e-06 6.142561e-05 -0.0011433834
000090 84 27 ad bb 38 74 70 35 f6 51 01 b7 08 79 3d 3a
       -0.0052842516 8.957609e-07 -7.708082e-06 0.0007227813
0000a0 5c 31 5d b8 25 c4 52 b8 27 32 9c b8 69 22 90 b8
       -5.2736475e-05 -5.0250575e-05 -7.448001e-05 -6.8728645e-05
0000b0 55 f1 9b 37 cb 07 93 38 79 d9 72 b6 65 41 0a b8
       1.8589819e-05 7.010958e-05 -3.6187396e-06 -3.2962667e-05
0000c0 e3 3e 84 b8 b9 7d 54 38 a1 5a 3e b8 f2 ef 67 38
       -6.305964e-05 5.0661827e-05 -4.5383935e-05 5.529816e-05
0000d0 84 f0 ba b8 54 d9 74 b8 2a 38 aa 36 df 5b 97 b8
       -8.913971e-05 -5.8376536e-05 5.072933e-06 -7.2173534e-05
0000e0 f5 11 39 b6 96 64 85 38 98 89 45 b8 36 14 bf 37
       -2.75776e-06 6.36067e-05 -4.7096604e-05 2.2778386e-05
0000f0 8f 43 8e ba 62 1a ef 3d 6d eb 41 be 7b e3 1c ba
       -0.0010853874 0.11674954 -0.18937464 -0.0005984825
000100 21 22 af bc b6 88 8d 3b 9b bf 67 3e 49 bf 4a 3d
       -0.021378579 0.0043192757 0.22631685 0.04949883
000110 39 3a 62 3e ac 66 af bd f8 ae 97 3d dd 52 cd 3d
       0.22092523 -0.08564505 0.074064195 0.100255705
000120 1d 03 13 be 2c d2 1b 3e bb 3b 07 39 03 a1 01 be
       -0.14356656 0.15216893 0.00012896855 -0.12659077
000130 5c d2 ed bc 1b 04 03 38 ea 2a 89 39 eb a0 32 be
       -0.029030971 3.1236657e-05 0.0002616265 -0.17444198
000140 23 4a 8a bb 01 87 ef bc bc a4 43 3e a7 cf 2d 3b
       -0.0042202636 -0.02923918 0.1910581 0.0026521476
000150 1e ac c6 bd b0 25 dc 3c 3f cd c8 3d c1 85 56 be
       -0.097007975 0.02687344 0.098047726 -0.2094946
000160 48 37 11 be 95 10 ab bc 25 1e f0 3d 8d 53 f3 3d
       -0.14181244 -0.02088193 0.117244996 0.118811704
000170 07 6d 33 3e b9 60 bc 3d 2f 2b 98 b9 d9 d0 ce 3c
       0.1752206 0.09198136 -0.00029023874 0.02524607
000180 c5 22 56 3d 5a a8 af b9 9b 7e ed b9 63 9c 3f 3e
       0.052279253 -0.00033504033 -0.0004529849 0.18712
000190 3e 14 40 b7 cd fa 20 bd ef 3c a2 b7 29 3f 96 b8
       -1.1448805e-05 -0.039301682 -1.934028e-05 -7.164322e-05
0001a0 bf 40 52 38 36 6b 1c 38 19 bd 0e bd e4 f6 8e b8
       5.01282e-05 3.7293146e-05 -0.034848306 -6.8170746e-05
0001b0 0b 8c 03 be 8f 52 68 3d 11 6c 4a 3c c1 ed 01 3d
       -0.12846391 0.05671936 0.012354867 0.03172088
0001c0 a3 da 6a be 18 4d 5f 38 d8 e0 85 b6 f5 b0 9c b8
       -0.22934966 5.3239142e-05 -3.989884e-06 -7.4716205e-05
0001d0 16 0d 27 b7 d3 e7 d9 b4 cf 77 81 b7 ff 4f 83 b7
       -9.9570225e-06 -4.0588074e-07 -1.5433789e-05 -1.5653668e-05
0001e0 09 fc 4d 38 e5 03 f3 36 03 c9 f7 36 6c 72 f5 35
       4.9110535e-05 7.2424177e-06 7.3845745e-06 1.8287224e-06
0001f0 22 78 d4 35 73 d8 a6 b8 32 54 a6 b7 76 bb a2 37
       1.5830194e-06 -7.9558136e-05 -1.9827949e-05 1.9399198e-05
000200 ee 64 01 b7 ba eb 79 b8 1f 3c ed b7 f7 66 e3 b7
       -7.712499e-06 -5.9585764e-05 -2.8280598e-05 -2.7108455e-05
000210 4b 29 82 37 8a 8b 73 b7 56 e0 08 b8 89 62 52 38
       1.5516436e-05 -1.4516418e-05 -3.2633856e-05 5.015967e-05
000220 43 6a 1d 32 8d 8d e0 35 fa e3 8f b7 d6 83 93 b8
       9.162764e-09 1.6730497e-06 -1.7153088e-05 -7.0340626e-05
000230 0a 72 cc b6 8c e0 a7 b8 63 33 80 37 03 a0 51 b8
       -6.0929497e-06 -8.005006e-05 1.5282718e-05 -4.9978506e-05
000240 11 d6 a7 36 a0 dc 9a 37 32 d8 de bc 69 6d ea b7
       5.0019084e-06 1.8460967e-05 -0.0272027 -2.7945922e-05
000250 b2 17 e1 bc ae 48 a6 b7 5b d5 ec bb b3 21 d7 bc
       -0.02747712 -1.9822586e-05 -0.0072275824 -0.026261186
000260 86 ba b8 bb bc 96 49 37 35 fd 98 b8 2c 29 00 b8
       -0.0056374697 1.2015629e-05 -7.295088e-05 -3.0555922e-05
000270 63 6c f4 34 f8 93 45 b8 51 f8 dd b6 bc 3a 1b b8
       4.5527403e-07 -4.7106267e-05 -6.615221e-06 -3.700958e-05
000280 38 00 0f bb 22 e2 cb bb 85 0a 28 be 2e 98 ec 38
       -0.0021820199 -0.0062220255 -0.16410263 0.000112817026
000290 59 e8 0c 3e 79 94 bb b6 28 62 1d 3e f0 97 a7 bd
       0.13760509 -5.590319e-06 0.15369475 -0.08183277
0002a0 04 c3 10 3e 28 8e 2f 3b 47 04 11 bd f2 41 82 bd
       0.14136893 0.0026787613 -0.03540447 -0.06360234
0002b0 3a 85 90 3d c4 e8 f2 3d c8 7b 4b b9 54 ce 5b 3d
       0.07056661 0.11860803 -0.00019405701 0.053663567
0002c0 c7 27 d1 3d 12 2c 60 37 47 a7 0b b7 61 44 1a be
       0.10212665 1.3361701e-05 -8.323993e-06 -0.15065147
0002d0 93 ed ae b8 d8 7e 25 be dc c6 3e b8 23 4d 8e 37
       -8.341218e-05 -0.16161668 -4.5484732e-05 1.6963639e-05
0002e0 e1 53 65 38 3c 69 3d b7 a5 ea bb bd 77 ea 30 b7
       5.4675973e-05 -1.128978e-05 -0.09175614 -1.0545008e-05
0002f0 80 11 63 3a 07 00 d0 3b b7 4f 27 be 92 8d 6e bd
       0.00086619705 0.0063476595 -0.16339003 -0.05824048
000300 37 97 d6 3d 1a e8 ea b6 47 c2 2a b7 68 59 53 b8
       0.10478061 -7.0007636e-06 -1.0178023e-05 -5.0389586e-05
000310 6a 29 7a b8 60 8f de b7 84 af 7f b7 28 7c 78 b8
       -5.9643215e-05 -2.6531226e-05 -1.524005e-05 -5.9243437e-05

fc3.bias f4 [10]
000000 83 4a 51 3d 2d 64 ef bd 0c 0d 07 b8 60 3f 81 bb
       0.05109645 -0.11689029 -3.219866e-05 -0.0039443225
000010 be c3 33 3e aa 5c 11 be 2c 31 a4 b8 7a 6f 30 bc
       0.17555138 -0.14195505 -7.8292884e-05 -0.010768766
000020 29 f3 3d be 9d 1f dc bd
       -0.1854979 -0.10748217

fc4.weight f4 [20, 10]
000000 5f 20 0e b9 ef 7a 20 38 f5 1c c5 b7 90 fb c6 b8
       -0.00013554234 3.8261463e-05 -2.3497714e-05 -9.488233e-05
000010 65 93 57 b8 cb 2f 14 38 4c aa 97 b8 1e b3 ca 37
       -5.1397266e-05 3.533046e-05 -7.231961e-05 2.4163684e-05
000020 9e 04 4d b8 a7 d3 59 b7 e5 42 8c 3e 57 b8 85 3c
       -4.888011e-05 -1.2983487e-05 0.27394786 0.016323252
000030 c6 73 16 b9 2a 34 48 bd 51 3f c5 bd 0b 33 be 3a
       -0.00014348244 -0.048877873 -0.09631217 0.0014511062
000040 35 1f fc b8 80 08 41 37 4f f4 ab 3e 59 97 13 3e
       -0.00012022109 1.15056755e-05 0.3358483 0.14413203
000050 93 4f ce 3c de 81 02 3d 03 b0 e6 b8 bd 8b 06 bd
       0.025184428 0.031862132 -0.000110000394 -0.03284811
000060 db 06 a0 be 26 e8 5f 38 b7 02 01 b9 75 c7 e9 38
       -0.3125523 5.338355e-05 -0.0001230341 0.000111474576
000070 71 ca 85 bd 07 70 1e b9 2c 0c 83 bd 26 cd c5 b8
       -0.06532753 -0.00015109788 -0.06398806 -9.431904e-05
000080 99 c9 a4 b7 b6 0c 49 3d 3a 22 9e 3c 3c 9e 29 bb
       -1.96442e-05 0.049084388 0.01930343 -0.0025881669
000090 03 93 11 38 f0 46 d7 b8 19 6a 14 3e e1 92 24 be
       3.470761e-05 -0.00010265212 0.14493598 -0.16071655
0000a0 a6 f8 07 3e 1b 2a e8 3c fc ce a7 b8 cc ab 7b bc
       0.13278446 0.02834039 -8.0017344e-05 -0.015360784
0000b0 b7 9f c9 be 2f 5d 1d 39 d5 a8 fd 38 28 7b b7 3b
       -0.39379665 0.000150074 0.000120954275 0.005599398
0000c0 46 43 92 be 08 0e bd 3c d7 b9 8f bd 2d a0 f0 37
       -0.2856695 0.02307798 -0.07017868 2.8684817e-05
0000d0 d9 d1 d8 36 a4 dd a5 3d e6 03 a5 bb 11 3f a7 b9
       6.461731e-06 0.08098915 -0.005035865 -0.0003189971
0000e0 d3 2c 1b 39 5a 51 93 36 89 48 7f 3e cf a1 35 be
       0.0001479865 4.390412e-06 0.24930014 -0.17737506
0000f0 9d b6 57 be 63 0a 3c 3d 44 bd 9f 37 f9 01 47 bd
       -0.21065755 0.045908343 1.904241e-05 -0.048585866
000100 31 af 56 3e cc a6 53 bc dc dd a7 36 a3 be 02 ba
       0.20965268 -0.012918185 5.0028157e-06 -0.00049875135
000110 57 9d 96 3e ee 66 35 be 3e 9d 1f 3e 0f cf 17 3d
       0.29416916 -0.17715046 0.15587327 0.0370627
000120 e3 9b 63 b8 8a 6d 92 3e 00 19 cb be 13 8e 29 39
       -5.42662e-05 0.28599197 -0.3966751 0.00016170023
000130 ec d1 c2 36 f8 cb 87 3a 59 d3 03 3e d7 6d 30 b8
       5.8060887e-06 0.001036047 0.12873591 -4.2063966e-05
000140 b7 83 3c be fa bb b3 38 72 09 95 b8 3a 0b 21 3e
       -0.1840962 8.5703985e-05 -7.106633e-05 0.15726939
000150 4a 06 81 3e 42 da b5 ba af f8 72 38 9c 78 92 ba
       0.2520011 -0.001387425 5.79289e-05 -0.001117486
000160 a3 3e 41 3e bc aa 0d bd fa 83 7a 37 43 fc bf b8
       0.1887155 -0.034586653 1.4931889e-05 -9.154577e-05
000170 0c 15 85 36 bf 6c 12 b9 c7 2e ac 35 6c 7c d4 b8
       3.966159e-06 -0.00013964156 1.2828613e-06 -0.00010132123
000180 42 d6 45 38 11 01 8d b6 c9 fa 48 37 6f 79 fe 38
       4.7168003e-05 -4.2022516e-06 1.1979319e-05 0.000121342826
000190 f9 20 9e bd 2a 00 e9 bc bf 0c f8 b8 c1 42 b6 3e
       -0.07721133 -0.028442461 -0.00011827936 0.35597804
0001a0 1a d1 82 3d 8f 2b 6d 3c 8c f5 f9 b4 65 3c e1 ba
       0.06387539 0.014475717 -4.6558523e-07 -0.0017184137
0001b0 38 fe 34 be 4e b4 0f 3e 8b 96 34 3e 6a 5a 0a 37
       -0.17675102 0.14033625 0.17635553 8.246492e-06
0001c0 53 46 f2 38 fd 79 8f be 3d 59 9a 3c 8e f7 b2 37
       0.00011552558 -0.28022757 0.01884138 2.133453e-05
0001d0 fd 84 1b b8 42 77 2b b8 04 80 e5 3d 91 08 f8 b7
       -3.7078735e-05 -4.0880645e-05 0.11206058 -2.9567893e-05
0001e0 38 9b bc 3d 90 a6 11 bd 96 46 b5 37 b2 e3 92 be
       0.09209293 -0.035559237 2.160975e-05 -0.28689343
0001f0 f3 37 72 3e 93 14 9a 3c d1 67 c0 38 99 22 e8 37
       0.23654155 0.018808639 9.174611e-05 2.7672666e-05
000200 5d 2d 6c 3e 6a 21 06 be de 9f 75 3e 7d f8 61 37
       0.2306418 -0.13098684 0.23986766 1.3468901e-05
000210 01 7a 91 37 87 19 ad be c0 29 25 bd 21 ee a5 38
       1.734216e-05 -0.33808538 -0.04032302 7.912168e-05
000220 f8 5a c5 38 a6 51 59 b7 ab ad 0c be 52 38 c3 b8
       9.410636e-05 -1.2953218e-05 -0.13738124 -9.308815e-05
000230 32 41 e6 38 2b 19 a3 38 44 fc fc 34 c2 5d 4b b8
       0.00010979398 7.7771336e-05 4.7122205e-07 -4.848629e-05
000240 aa c6 38 37 0d f7 33 36 36 00 2f 39 84 75 11 b9
       1.101351e-05 2.681688e-06 0.00016689379 -0.00013872056
000250 35 b6 f9 36 9c f3 0a 39 0a a8 4e 3c 08 a8 2d 37
       7.44199e-06 0.00013251457 0.012613306 1.0350726e-05
000260 37 3b 4d b7 83 af a9 be f2 76 23 3e 5a b5 8a 3b
       -1.2232739e-05 -0.33141717 0.15963343 0.0042330446
000270 b7 31 27 38 d1 ee f2 b2 ad 16 c3 bd 98 5d 8a 3e
       3.9862203e-05 -2.8281109e-08 -0.095258094 0.2702453
000280 35 16 04 be b7 b7 99 bc 57 27 42 b7 bc 10 ce bd
       -0.12899096 -0.01876436 -1.1572461e-05 -0.100617856
000290 45 bd 99 be 09 98 02 38 30 74 d3 b7 31 8d 25 b9
       -0.30027214 3.113601e-05 -2.5207264e-05 -0.00015788224
0002a0 0f 34 b0 bd 41 8a 8a b7 72 2b 91 be c0 bd 1c 39
       -0.086036794 -1.6515261e-05 -0.2835346 0.00014948007
0002b0 07 a3 30 b8 d5 3d 61 be b3 c4 84 3e 4c b1 e9 39
       -4.21135e-05 -0.21996243 0.2593132 0.0004457332
0002c0 d0 79 20 38 4a c3 2d b9 fa ef e6 3d 9b c5 50 be
       3.826042e-05 -0.00016571317 0.11276241 -0.2038788
0002d0 f2 ab f2 bd f5 56 10 38 87 bb cd b8 4e 5a 1d be
       -0.11849202 3.441326e-05 -9.8100914e-05 -0.1536648
0002e0 a4 0a 8d 3e 72 01 e9 38 53 60 27 38 d7 de 2e 37
       0.2754718 0.00011110575 3.990561e-05 1.0423092e-05
0002f0 cb df 98 be 07 f7 08 3e 63 7f f3 b7 43 61 cd 38
       -0.2985824 0.13375483 -2.9027176e-05 9.793278e-05
000300 38 e8 b5 36 8c 4b 23 be 20 f9 e1 bd 6d c0 a2 b7
       5.421254e-06 -0.15946788 -0.11033845 -1.940151e-05
000310 f4 5c 8e 37 22 32 e2 b8 66 d2 04 be d6 05 68 37
       1.6971004e-05 -0.00010785858 -0.12970886 1.3829636e-05

fc4.bias f4 [20]
000000 8c c6 41 36 57 af 34 3e f3 d8 27 be 8e 77 7b be
       2.887481e-06 0.17645012 -0.16391353 -0.24557325
000010 39 9e b2 3e 9f e5 a7 bd 63 47 a9 bd ba 85 ca 3d
       0.3488634 -0.081980936 -0.08265569 0.098887876
000020 1c 4d 7a be a0 c0 14 b9 81 0f be 3d 85 4b af be
       -0.24443477 -0.00014186138 0.09280301 -0.34237304
000030 6f 9f 52 3e fd 91 3c be 58 cf 0a b9 ec 3f e8 bd
       0.20568632 -0.18415065 -0.00013237947 -0.11340317
000040 45 4a dd bc 4f 79 01 be 7c 98 02 bd f9 43 11 be
       -0.027012954 -0.12643932 -0.0318837 -0.14186086
